checkpoint_critic_fc50_1000eps.pth (torch, 13543 bytes, 5 tensors)

fcs1.weight f4 [50, 3]
00000000: 1b95 9e3f ca12 2440 f48e 103f d495 dbbe
00000010: f013 e3bf 6b60 c4be 09ec cebe 8a08 133f
00000020: 93ce a6bd cd0a 94bf b4cd 93bf 2f6e c6be
00000030: 0193 a13f b020 2d40 b042 023f c297 6bbd
00000040: a8aa 923d a59c 49bd 9507 c5bf 1e13 f93f
00000050: 5c03 913e f54c 2ebe b9f7 85bd 9930 74be
00000060: 54a3 9b3f e5cf 8340 4e36 aa3f 20b8 8bbf
00000070: 7bb8 f6be f7b0 d9be 6dd6 9bbf d4b4 4f40
00000080: ccf9 0a3f e02e fcbf 3538 a2bf 952e c8be
00000090: 7336 89bf 2c75 5dbf 1562 c3be 02b9 8b3f
000000a0: 5e2d e2bf b7b4 23bf e4d7 fabf 94e4 d33e
000000b0: 2fad 35be 6cde 1ac0 f779 85bf e1c4 5fbf
000000c0: f317 de3f 18b7 a13f ecd5 173f 295d b73e
000000d0: f25d f93f 43a3 753e e9a1 0b3d 27ca 813d
000000e0: 222e 7f3c 6200 043e 0839 0d3e 26c1 e13c
000000f0: 18b7 dabf 55f2 babf 52a3 edbe 4575 c0be
00000100: 375d b23f 2da7 a53e 757d 92bf 744c f6bd
00000110: fdb9 55be 735f 643f e8a8 dc3f 402a 23bf
00000120: 6359 f63d dc8a 8e3d 726b 8bbd 045a 0fc0
00000130: 103d b3bf c37d af3d 8c21 7fbd 401d 4a3d
00000140: 59c6 3ebd 7dfb 31c0 9463 4d3f 187b 9ebe
00000150: 04cd a6bf a653 25bf c4d8 b4be 9382 8abf
00000160: 975d fabe 6e3f afbe cf46 59c0 3a9b 063f
00000170: 69f9 70bf d1da c23c 2609 83bd 56c1 30ba
00000180: 1640 b0be 0046 59be aea0 633e c198 f2be
00000190: fc05 443f c34c 75be ed84 0440 12f6 1b40
000001a0: e8d7 413f 7e25 debf 3e4a 83bf 1da4 21bf
000001b0: 2524 01c0 496d 54bd c568 4bbe bbfd 4abf
000001c0: 5751 733f 717f 933e 16fd b1be 2923 1c40
000001d0: d276 033f fdd7 57be c94a 1a40 4426 573e
000001e0: 55ab a9bf add0 febf ee1e 35bf 8cff ee3c
000001f0: 20a3 d4bd cf5a 443a e6f8 d8be 8cb8 4dbe
00000200: 90a3 a4be e389 80bf 3f61 02c0 cfbd 06bf
00000210: ba55 9b3f 3ee8 d03f af01 023f 5156 9dbd
00000220: 1249 c0bb b286 c8bc 278e afbf 9a3a 4cc0
00000230: 044c 56bf 1c59 483f 9adb c03f 3e30 d03e
00000240: b4f4 adbe 0024 0840 bc88 c23e 2727 a7bf
00000250: bc77 2cbf c18a a2be
1.2389253 2.5636468 0.5646813 -0.42887747 -1.774046 -0.3835481 -0.40414456 0.57434905
-0.0814487 -1.1565796 -1.1547151 -0.38755938 1.2622987 2.70512 0.5088301 -0.057517774
0.07161456 -0.049221653 -1.5392939 1.9458959 0.28322875 -0.17021544 -0.0654139 -0.23846664
1.2159219 4.1191278 1.3297822 -1.0915565 -0.48187622 -0.42517826 -1.2174813 3.2454119
0.5428741 -1.9701805 -1.2673403 -0.3909804 -1.0719742 -0.86506915 -0.38160768 1.0915835
-1.7670095 -0.63947624 -1.9597135 0.4138533 -0.17741846 -2.4198256 -1.0427846 -0.8740979
1.7351059 1.2634001 0.59310794 0.35813263 1.9481795 0.2398806 0.034089956 0.063373856
0.015574964 0.12890771 0.13791287 0.02755792 -1.7087126 -1.4605204 -0.46413666 -0.3758947
1.3934697 0.32354107 -1.1444536 -0.12026301 -0.2087173 0.89208144 1.7239046 -0.63736343
0.12028768 0.06960079 -0.06807603 -2.239869 -1.400301 0.08568909 -0.062287852 0.0493443
-0.046575878 -2.7809746 0.8023007 -0.30953288 -1.3031316 -0.6458076 -0.3532163 -1.0821098
-0.48899528 -0.3422808 -3.3949468 0.52580607 -0.9413057 0.02378598 -0.06398229 -0.00067426765
-0.34423894 -0.21218109 0.22229263 -0.47382167 0.7657163 -0.23955064 2.0706131 2.436894
0.7572007 -1.7355192 -1.0257032 -0.6314104 -2.017831 -0.051862035 -0.19864185 -0.7929341
0.9504599 0.28808168 -0.34763402 2.439646 0.5135318 -0.21078487 2.4108145 0.21010691
-1.3255411 -1.9907433 -0.7075032 0.029174589 -0.10382676 0.0007490338 -0.42377394 -0.2008993
-0.32156038 -1.004208 -2.0371854 -0.52633375 1.2135537 1.6320875 0.5078382 -0.07682479
-0.0058680857 -0.02447829 -1.3715256 -3.1910768 -0.8370974 0.7826097 1.5067017 0.40661806
-0.33975756 2.1271973 0.37994945 -1.3058823 -0.673702 -0.31746486

fcs1.bias f4 [50]
00000000: 5875 56bf 5fc1 973e 3218 8a3f 799a 803f
00000010: f2f9 1ebf ec7c fcbe 114a 53bf bb4f b43f
00000020: 1ecb bc3d 73e9 a83f 8cb5 a03f 6377 a33f
00000030: 30d1 a83f 3010 7dbf 135a 3a3d bb26 3840
00000040: 30e5 e4bf e3eb fe3e 4a46 93be da15 e9be
00000050: 65cd 923f bbd7 f13e 5816 9e3f 547e 7d3f
00000060: 7800 09bf 1eb5 2a3e 088c 00bf 7470 b53f
00000070: c224 a93f cedc a13f 7d3f 683f f684 10be
00000080: 5bd8 9d3f cfcc 973f 330f b53d e604 ee3f
00000090: 1b4e a43e 774e 2d3f 8e46 833f e6c9 c03f
000000a0: e529 b13f 59d6 fabe 6409 dc3f e80c 453f
000000b0: 30f4 87bf ab10 9fbe 7b8d a43f 80e2 a6be
000000c0: 1df0 f13e b774 a33f
-0.837728 0.29639718 1.0788634 1.0047141 -0.62100136 -0.49314058 -0.8253489 1.4086832
0.09218429 1.3196243 1.2555404 1.2770809 1.3188839 -0.98852825 0.045496058 2.877364
-1.7882442 0.49789342 -0.28764564 -0.45524484 1.1468931 0.47234902 1.2350569 0.99020886
-0.5351634 0.16670653 -0.5021367 1.4174943 1.3214343 1.2645509 0.90721875 -0.1411322
1.2331651 1.1859378 0.0884079 1.8595245 0.3209084 0.6769785 1.0255907 1.5061615
1.384091 -0.4899166 1.7190366 0.7697282 -1.0621395 -0.31067404 1.2855676 -0.3259468
0.47253504 1.2769994

fc2.weight f4 [50, 51]
00000000: 04a9 fb3e c3f2 e43e 04f5 c83e 8d21 2d3f
00000010: b6c2 2c3e 46bd 9b3d fa9c 72be dc0e 563f
00000020: 7b5c aabc 0c64 293f 8ec4 81be f418 acbf
00000030: 0b73 de3e 80e8 0e40 306b 49bc d3c0 96bf
00000040: be96 ad3f ba6c 93be f32b 09be 3237 b0bd
00000050: 570e 90bf bc59 1b3f d191 053f b128 453f
00000060: 875f c43d 6794 1fbe 02c2 3fbd feb4 40bf
00000070: 71c0 f63e 9501 373f d7b9 24bd 6084 4f3d
00000080: 8783 0f3f b680 9e3f 537a 503e ab5b bbbf
00000090: 587b 89be 3b1f 153f d22e edbe fc76 c4be
000000a0: 9631 dbbe 0805 ee3d fb26 a13f e3fc 603f
000000b0: 5e1e 743f a07a bfbc 0355 86be adcd d7be
000000c0: 3485 753e 46df ef3e d5fa ccbd e446 8bc0
000000d0: a8d6 60bf 3d31 a83f a392 6a3f 4f86 b8c0
000000e0: ab87 a03c 609e ef3e 0efe a43f 99ed 0f3d
000000f0: 7aff ccbd 1e32 43bf e608 5abf eca7 593f
00000100: 6672 3dc0 0240 29bf e020 c0bf d018 ac3e
00000110: 84f8 ddbf 323c eabd b5ae 84bd 7f45 b9bf
00000120: 5d1c 893f 89bd 993f bc56 cc3f 6856 4fbd
00000130: 2086 263f 7342 793d f0f5 223e c414 8e3f
00000140: 7780 093f b4f0 40bf d8b4 6bbd 9245 413f
00000150: 7a7f 273e 174d 2cbf da33 fabf 59e0 473e
00000160: 9094 4d3f fea8 26bf d5e2 7abe ac76 5abf
00000170: 1678 b8bd aa31 d93f 39e4 513e d192 0ac0
00000180: 8ab4 89bd ecc0 29be 1ba9 fdbf b17b 14bf
00000190: 6896 573f 02c3 a6bf 75a6 163f 9bcd 103f
000001a0: 5599 e93e 4291 253f 7871 bf3d b7ab 923d
000001b0: 1a72 85be 0f79 323f 8df1 6cbe 4161 043f
000001c0: ebd0 95be 3d66 e8bd 89bb a73e f3d0 e9bf
000001d0: 17ae 253f 81c0 9bbf ad9a a43f bd78 aebe
000001e0: 02c2 fdbc ae63 893d 0a9f e03d 0a00 d93e
000001f0: 57a3 4e3e 776c 7cbe 6c8e ddbd 9192 c73e
00000200: 631a a03d 3e8d 873e a043 003f 2cb3 693f
00000210: d705 bc3e 77a5 993d 8cba 13bd 2360 5d3f
00000220: dd28 6c3e bca6 ebbf 7b17 323f 956f a53e
00000230: c1d7 e6be 08db 91be e65a aabe 8d20 033e
00000240: 94da 1f3f 62e5 6b3f a661 a53f f1e1 2d3e
00000250: 8130 23c0 1a7f bdbe 9f75 c13e fd15 093f
00000260: 762a 0f3f 2f69 d53e 92e1 f83e 12ec d23e
00000270: 7014 893e aae2 843e 5486 dcbd 5331 af3e
00000280: cced 133f 3b63 c3be 1d1e bf3e 8ac1 82be
00000290: ae84 5bbf 02cd 013f 91a1 6f3f a2fa 343f
000002a0: 2553 98bf 4ac6 703f fbd2 b6be c64a febd
000002b0: b051 46bd d4a4 47bf f126 1e3e 8c64 a83e
000002c0: 3686 60bf e2e0 e9bd 3c00 b83e a0a4 f8bc
000002d0: 724a 343f 913f 5a3f 329e 503f c181 9f3f
000002e0: 79fa fc3c 9e0c bd3e 88c0 183f d0b0 073f
000002f0: c33f e2bf a950 023f a695 9f3e 8ebb cfbe
00000300: 9328 ddbe 391e 22bf c873 60bc a615 783f
00000310: 89bb 513f 7229 5d3f 85ba 463d 75a4 c6bf
00000320: f5d1 4bbf db5d 473e 5645 533f 0b0a 3339
00000330: 67ff 1d3f 3f8a fd3f 4284 533f 8349 d5be
00000340: b279 1f3e af4e 39bd d5f0 2ebe 65ce 693f
00000350: fbac 70be a2f2 e63e 479d a4be 1dfc 41bf
00000360: fdb9 95be 5c66 13c1 801a cb3f 7314 8bbf
00000370: 540b 9f3f fdd9 bdbe 5b69 723d 8ddb 883d
00000380: ae72 93bf 852d d23e facc d13e de73 ccbe
00000390: fdba 23be 7fb8 20bf 7b8a 15bd d134 8a3d
000003a0: ffa0 1d3f f1d4 2f3f 1c8a c73e e6c8 7c3d
000003b0: a7df 0b3e 0f5d 763f 65ff c63e 018e e1bf
000003c0: b509 993f d06e a63e b508 2fbf 4090 9dbd
000003d0: 3975 83bf 811f 95bd d671 893f d11b 103f
000003e0: e2b1 8e3f 3dd4 bdbd 00f4 81c0 6c44 4cbf
000003f0: f970 b63e 3235 913e 643b cdbe baa1 533f
0.49152386 0.44716462 0.39249432 0.6762932 0.16871151 0.076044604 -0.23692694 0.83616424
-0.020796051 0.66168284 -0.25345272 -1.3445115 0.43447146 2.2329407 -0.012293622 -1.1777595
1.3561628 -0.2879389 -0.13395672 -0.08604278 -1.1254376 0.606838 0.52175623 0.77015215
0.09588533 -0.15583955 -0.04681588 -0.7527617 0.48193696 0.7148679 -0.040216293 0.050663352
0.5606007 1.238303 0.20359163 -1.463735 -0.26851916 0.5825078 -0.46324784 -0.38372028
-0.4281127 0.116220534 1.2590021 0.87885875 0.95358837 -0.023373902 -0.26236734 -0.42149106
0.23976594 0.46850032 -0.1000878 -4.3524036 -0.8782754 1.3140026 0.9163 -5.766395
0.019595942 0.46800518 1.2890031 0.0351387 -0.10009666 -0.7624835 -0.8516983 0.85021853
-2.9601073 -0.66113293 -1.5010033 0.3361268 -1.7341466 -0.114372626 -0.06478635 -1.4474334
1.0711781 1.2010967 1.5963969 -0.050619513 0.6504841 0.060854387 0.1591413 1.1100087
0.53711647 -0.75367284 -0.057545513 0.7549678 0.16357222 -0.6730513 -1.9547074 0.19519176
0.80304813 -0.6510161 -0.24500592 -0.8533733 -0.090072796 1.6968281 0.20497216 -2.165211
-0.06723888 -0.165775 -1.9817232 -0.5800124 0.84213877 -1.3028262 0.58847743 0.5656373
0.45624796 0.6467477 0.09347814 0.07161658 -0.26063615 0.6971597 -0.2313902 0.517109
-0.29260954 -0.113476254 0.32760265 -1.8266891 0.64718765 -1.2168123 1.2859703 -0.3407649
-0.0309763 0.067084655 0.10967834 0.42382842 0.20179497 -0.24650751 -0.108181804 0.3897901
0.07817533 0.26474947 0.5010319 0.9128902 0.36723205 0.07502263 -0.036066577 0.8647482
0.23062463 -1.8410258 0.6956708 0.32311693 -0.45086482 -0.2848742 -0.33272475 0.12805386
0.624429 0.92146885 1.2920425 0.16980721 -2.5498354 -0.37011033 0.3778505 0.53549176
0.55924165 0.4168181 0.48609596 0.41195732 0.26773405 0.2595418 -0.107678086 0.3421732
0.57784724 -0.38161644 0.37327662 -0.25538284 -0.8574933 0.5070344 0.93605906 0.70694935
-1.1900374 0.94052565 -0.3570784 -0.12416606 -0.048417747 -0.7798588 0.15444542 0.3288921
-0.8770479 -0.11419846 0.3593768 -0.030351937 0.70426095 0.85253245 0.81491387 1.2461473
0.030881153 0.3692369 0.5966878 0.5300417 -1.7675709 0.5090433 0.3116886 -0.4057278
-0.43195018 -0.63327366 -0.013699479 0.9690803 0.8192678 0.86391366 0.048517723 -1.5518938
-0.79617244 0.19469397 0.82527673 0.00017074512 0.6171784 1.9807814 0.82623684 -0.41657647
0.15573767 -0.045241054 -0.17084058 0.9133056 -0.23503487 0.4510699 -0.32151243 -0.7577532
-0.2924346 -9.21249 1.5867462 -1.0865616 1.2425332 -0.37080374 0.059182506 0.06682501
-1.1519372 0.41050354 0.40976697 -0.3993215 -0.15989299 -0.6278152 -0.03650902 0.06748355
0.61573786 0.686843 0.38972557 0.06171503 0.13659535 0.96235746 0.38866726 -1.7621461
1.1956087 0.32506418 -0.6837266 -0.07693529 -1.0270149 -0.072813995 1.0737865 0.56292444
1.1148036 -0.09268997 -4.061035 -0.79791903 0.35633066 0.28360897 -0.40084374 0.8266865

fc2.bias f4 [50]
00000000: 8edb a4be 7e74 3b3d e426 73bf 0970 4dbf
00000010: b100 0ebf 2c72 4cbe 7dd3 23bf 4e8b 69bf
00000020: fabb 2ebf b817 54bf 9ac2 11bf ea82 c63f
00000030: f6ec df3d 2014 1dbf 6ca5 24bf 9a26 fbbe
00000040: 88f8 e1bd 3a49 6dbf 65c6 28be a292 0bbf
00000050: 02c8 2dbf ab1b 76bf 5928 b3bf 389e c5bd
00000060: 08e8 28bc 4e0a e9be ae6f 3940 ae26 45bf
00000070: 0361 22be e4a5 cdbb eb87 a0be e00e 89bf
00000080: ec01 cdbe c905 64bf e182 79bf e504 8dbf
00000090: 7a4d a9bf 92a1 08bf 54d1 94bf fc32 7ebf
000000a0: 1446 7cbf 1f5f 6abe 8f07 56bf 9e73 c9be
000000b0: 2fda 88bf abbd 49bf f889 7abf 4bfb 66bf
000000c0: 103e 50be ef78 88bf
-0.32198757 0.045765392 -0.9498122 -0.8024908 -0.55469805 -0.19965428 -0.6399458 -0.9122819
-0.6825558 -0.8284869 -0.56937563 1.5508702 0.109338686 -0.61358833 -0.64314914 -0.49052888
-0.11033732 -0.9268986 -0.16481932 -0.5452062 -0.6788331 -0.9613597 -1.3996688 -0.096493185
-0.010309227 -0.45515674 2.8974414 -0.77012146 -0.1585732 -0.006275879 -0.31353697 -1.0707664
-0.4004053 -0.8907133 -0.9746533 -1.1017119 -1.3226769 -0.53371537 -1.1626382 -0.99296546
-0.9854443 -0.22887848 -0.83605283 -0.3934602 -1.0691584 -0.78805035 -0.97866774 -0.9022719
-0.20336175 -1.0661906

fc3.weight f4 [1, 50]
00000000: c36b 66c0 0a25 e2c0 e561 52c0 a79d 85c0
00000010: 27fc fbbf a3f6 3dc0 a309 45c0 61fc 4ec0
00000020: aa50 67c0 ac17 87c0 61e7 38c0 946a fc40
00000030: c3a4 35c1 05c1 26c1 a447 b1bf 1068 f7bf
00000040: 0b7f 9ac0 b096 0cc0 d449 f2bc 0c6f 14c0
00000050: cdb9 fec0 5404 1fc0 e4cb 52c0 3013 273b
00000060: df54 96ba 47b8 6ec0 0384 e740 b9ac edbf
00000070: 6a5e 3bc0 f49b fbbc 3a21 9c40 93d3 07c0
00000080: 04e2 f0bf cb12 0fc0 4669 e9bf 68e9 adc0
00000090: 474e d1c0 451a eebf a9ef 5cc0 598a 85c0
000000a0: af42 5ec0 d8e9 10c0 c0ef 47c0 5802 9ac0
000000b0: b342 6bc0 0a59 cdc0 8afe 89c0 273a 0fc0
000000c0: 550e c93b adb4 1ec0
-3.6003273 -7.0670214 -3.287225 -4.1754947 -1.9686326 -2.9681785 -3.0787132 -3.234154
-3.6142983 -4.2216396 -2.8891222 7.88801 -11.352725 -10.422124 -1.3849988 -1.9328632
-4.828008 -2.1966972 -0.02957622 -2.3192778 -7.9601808 -2.4846392 -3.2936945 0.0025493614
-0.0011469385 -3.7299974 7.2348647 -1.8568336 -2.9276376 -0.030714013 4.879056 -2.1222885
-1.8818974 -2.235522 -1.8235252 -5.434742 -6.5408053 -1.8601767 -3.4521277 -4.173138
-3.47282 -2.2642727 -3.1240082 -4.812786 -3.675946 -6.417119 -4.3123217 -2.2379243
0.0061357417 -2.4797776
