checkpoint_actor_fc20_1000eps.pth (torch, 4191 bytes, 5 tensors)

fc1.weight f4 [20, 3]
-0.22383824 -0.47943902 -0.09256054 -0.3288899 -0.8171983 -0.5548128 -0.4871401 -0.71777296
-0.6553864 0.0470227 0.6062608 -0.15443088 -0.088267855 1.192437 0.15628548 -0.29408103
-0.24447815 -0.0075154738 -0.5054199 -0.2593873 -0.21862777 0.0021183684 -1.265868 -0.852507
0.17633404 0.3668064 0.18718724 -0.6436853 -0.9334997 -0.27767843 0.4099216 0.33224976
0.4970062 0.46585703 0.98533475 -1.0797415 0.07466721 -0.002410956 -0.017788006 0.035326406
0.88001025 0.20026745 -0.45411384 -0.15616831 0.23010749 -0.11572969 -0.7500141 -0.045400348
-0.27540034 0.2831324 0.53515804 0.14113458 -0.10793324 0.03867832 0.4015878 0.2661876
0.4349002 -0.53869206 0.7050269 -0.10971228
00000000: da35 65be 0879 f5be 6190 bdbd 4264 a8be
00000010: e833 51bf 3608 0ebf 6d6a f9be f8bf 37bf
00000020: 67c7 27bf e09a 403d e833 1b3f 2123 1ebe
00000030: c7c5 b4bd c7a1 983f 4d09 203e ca91 96be
00000040: 7b58 7abe 5d44 f6bb 3363 01bf 6ace 84be
00000050: f5df 5fbe 53d4 0a3b f607 a2bf e63d 5abf
00000060: e990 343e 0cce bb3e 03ae 3f3e 8fc8 24bf
00000070: d6f9 6ebf de2b 8ebe 3ee1 d13e a41c aa3e
00000080: 9977 fe3e d084 ee3e e63e 7c3f f834 8abf
00000090: 1feb 983d 2101 1ebb 27b8 91bc 6cb2 103d
000000a0: 5a48 613f e912 4d3e 9c81 e8be 96ea 1fbe
000000b0: 4ca1 6b3e b003 edbd ed00 40bf b7f5 39bd
000000c0: 4601 8dbe bbf6 903e 1e00 093f 9585 103e
000000d0: 1a0c ddbd 286d 1e3d eb9c cd3e be49 883e
000000e0: 3dab de3e b9e7 09bf a57c 343f d5b0 e0bd

fc1.bias f4 [20]
0.5437172 -0.012152255 0.25358623 0.8247713 0.83411247 0.43994704 0.29918364 -0.5280481
0.013320611 0.2934686 -0.10171984 0.18153039 -0.37967953 0.6651454 0.47782898 0.35556895
0.5317008 -0.5397258 -0.007362205 0.41581696
00000000: 0d31 0b3f 401a 47bc 0ed6 813e 3624 533f
00000010: 6588 553f bd40 e13e 992e 993e 292e 07bf
00000020: b13e 5a3c 8441 963e 7e52 d0bd 1ae3 393e
00000030: 5b65 c2be f846 2a3f 00a6 f43e 220d b63e
00000040: 8b1d 083f 782b 0abf a73e f1bb f6e5 d43e

fc2.weight f4 [20, 20]
0.20743118 -1.0932333 -0.4060101 0.14157753 0.09212622 0.16976424 0.08579557 0.09889254
-0.19463049 -0.29424214 -0.18529427 -0.7657222 0.1743418 0.40113035 0.3767272 0.35804012
0.26125765 0.037523367 -0.039664384 1.0261422 0.26731333 -1.0118876 -0.3650109 -0.072578184
0.084531836 -0.023256391 -0.6957823 0.69268847 -0.04150176 -1.8263611 -0.54850054 0.3600717
0.06626246 0.0912353 0.5349093 0.18150495 0.05497902 0.04303852 -0.113357775 0.44806287
-0.35659298 -0.7419264 -0.46419367 -0.10704272 0.08556858 -0.5464921 -0.35341012 1.3889184
0.2524304 -0.4631592 -0.27171814 -0.25098315 0.08261592 0.39976692 0.06444513 -0.29745802
-0.013387446 0.10287438 -0.20897615 0.3803272 0.19685155 -0.84187937 -0.64403164 -0.23229961
-0.0045525255 -0.008438212 -0.34238118 1.3190354 -0.09588003 -0.53270435 -0.23149912 0.28177163
0.003624524 -0.012375501 0.3918497 0.31676587 0.2858408 -0.08279239 -0.13952707 0.49353033
0.37459478 -0.9243804 -0.30701417 -0.30386278 0.0015503808 0.0896846 -0.32450044 1.4160447
-0.30052912 -0.42301616 -0.2732576 0.20047255 0.10052055 0.45479903 0.5329701 0.2628587
0.41380334 0.03687528 -0.32255316 0.51834786 0.24800342 -0.9777204 -0.50900835 -0.06829003
0.18335623 0.24969745 -0.5187796 1.1960564 -0.34653246 -0.1427981 -0.5268561 0.096999995
0.13599737 0.091665514 0.16247179 0.4394823 0.37158677 -0.027342293 -0.3033894 0.5346654
0.2026384 0.85147834 0.9051154 0.19295248 -0.059057944 0.09608895 0.48558733 -0.74244905
0.008821482 0.71460587 0.48055187 0.21513765 -0.18351549 -0.0013907938 -0.13424192 -0.11881126
-0.053305592 -0.03879574 0.017670842 -0.15945292 0.21860304 -0.88329047 -0.3603365 0.026560972
0.28079534 -0.07126187 -0.6993377 1.2059067 -0.21761641 -0.92659086 -0.50483716 0.48808414
0.17347242 0.107041 0.34482157 0.40190777 0.11631482 -0.21179032 -0.20440295 0.61421275
0.35551706 -0.9811183 -0.3873151 -0.0068062902 0.025687175 0.19400331 -0.26363927 1.0713534
-0.6240413 -0.14930221 -0.22197603 0.065549284 0.083303675 -0.022150274 0.421069 0.4783122
0.27328274 -0.14555958 -0.24069174 0.54892904 0.27091557 -0.88116294 -0.3052109 -0.00055509637
0.01813386 0.19421217 -0.42930844 1.2089587 -0.051991813 -0.469211 -0.33445305 0.17394471
-0.20228302 0.2440206 0.33156455 0.12894529 0.28873992 0.050545227 -0.46026465 0.62426835
-0.09343897 -0.6896655 -0.3534525 -0.28339225 0.3869657 0.12086126 0.10870957 0.9754249
-0.014529167 -0.0679847 -0.24173349 -1.3427862 0.016408024 0.45949945 0.27599916 -0.21033165
0.14255834 -0.06719444 -0.38780636 1.0536048 0.48566905 -1.5316491 -0.87640333 -0.2775102
0.2091416 0.33459327 -0.025395371 0.77395135 0.02121874 -0.33199847 -0.45263386 -1.4453013
-0.2038921 0.14139402 0.4888132 0.34093195 0.17318277 -0.034965776 -0.34990612 1.2463084
0.12201909 0.79529315 0.61005694 0.643502 0.2808768 0.0008149498 0.5293971 -1.1731572
0.52182984 0.6148858 0.63419265 0.25242606 0.20650987 0.37534523 -0.23345654 -0.49660185
00000000: d768 543e 12ef 8bbf 8ee0 cfbe b3f9 103e
00000010: acac bc3d add6 2d3e 96b5 af3d 2c88 ca3d
00000020: 374d 47be e8a6 96be c8bd 3dbe 5f06 44bf
00000030: a886 323e f560 cd3e 63e2 c03e 0951 b73e
00000040: 90c3 853e 1ab2 193d 1f77 22bd a158 833f
00000050: 4bdd 883e 8885 81bf b5e2 babe dfa3 94bd
00000060: 071f ad3d 3084 bebc ca1e 32bf 0854 313f
00000070: c0fd 29bd 33c6 e9bf 886a 0cbf 515b b83e
00000080: 9db4 873d 93d9 ba3d d1ef 083f 6fdc 393e
00000090: ae31 613d 2949 303d 1f28 e8bd 7f68 e53e
000000a0: 5b93 b6be e3ee 3dbf cbaa edbe 3739 dbbd
000000b0: 943e af3d e8e6 0bbf 2cf2 b4be 14c8 b13f
000000c0: 8f3e 813e 3423 edbe a41e 8bbe dd80 80be
000000d0: 8932 a93d 40ae cc3e cffb 833d 6b4c 98be
000000e0: 0557 5bbc ceaf d23d d8fd 55be 3fba c23e
000000f0: 7493 493e 6885 57bf 42df 24bf f3df 6dbe
00000100: 5a2d 95bb 6d40 0abc 964c afbe 27d6 a83f
00000110: c05c c4bd 505f 08bf 1b0e 6dbe 5f44 903e
00000120: 6c89 6d3b 9dc2 4abc 86a0 c83e 232f a23e
00000130: ba59 923e 0e8f a9bd 2fe0 0ebe 02b0 fc3e
00000140: e3ca bf3e 32a4 6cbf f630 9dbe e793 9bbe
00000150: 2636 cb3a 8fac b73d ec24 a6be f440 b53f
00000160: f4de 99be 9395 d8be 6ce8 8bbe ad48 4d3e
00000170: b8dd cd3d 6bdb e83e ba70 083f 6a95 863e
00000180: 08de d33e 890a 173d b025 a5be 72b2 043f
00000190: 9cf4 7d3e e24b 7abf 5f4e 02bf a5db 8bbd
000001a0: bcc1 3b3e b0b0 7f3e bdce 04bf 6018 993f
000001b0: b46c b1be aa39 12be 0be0 06bf efa7 c63d
000001c0: e542 0b3e 21bb bb3d 015f 263e d303 e13e
000001d0: 9f40 be3e f2fc dfbc db55 9bbe d5df 083f
000001e0: 7180 4f3e 7cfa 593f a5b5 673f 5695 453e
000001f0: bee6 71bd 49ca c43d e79e f83e 2411 3ebf
00000200: fa87 103c 69f0 363f e50a f63e 0b4d 5c3e
00000210: 7ceb 3bbe 4c4b b6ba b776 09be 5153 f3bd
00000220: f756 5abd 48e8 1ebd 71c2 903c a047 23be
00000230: 7ad9 5f3e 531f 62bf 077e b8be 6596 d93c
00000240: 68c4 8f3e bef1 91bd cc07 33bf 275b 9a3f
00000250: d6d6 5ebe 0f35 6dbf 023d 01bf 2ae6 f93e
00000260: c1a2 313e 5038 db3d 748c b03e dbc6 cd3e
00000270: 7736 ee3d 90df 58be 024f 51be 0c3d 1d3f
00000280: 5506 b63e 922a 7bbf 2a4e c6be 4d07 dfbb
00000290: e96d d23c cea8 463e bafb 86be 1c22 893f
000002a0: 2cc1 1fbf aee2 18be af4d 63be b43e 863d
000002b0: 1e9b aa3d 7e74 b5bc 5b96 d73e 56e5 f43e
000002c0: b7eb 8b3e 920d 15be e577 76be 9d86 0c3f
000002d0: 72b5 8a3e e593 61bf 9a44 9cbe e383 11ba
000002e0: 768d 943c 8edf 463e 51ce dbbe 29bf 9a3f
000002f0: 5ef5 54bd 6d3c f0be 6e3d abbe 901e 323e
00000300: 4823 4fbe 89e0 793e d4c2 a93e 3c0a 043e
00000310: b8d5 933e 8308 4f3d cfa7 ebbe 0dd0 1f3f
00000320: ee5c bfbd eb8d 30bf baf7 b4be ca18 91be
00000330: 5e20 c63e 1c86 f73d 1fa3 de3d 72b5 793f
00000340: be0b 6ebc 903b 8bbd fc88 77be 6be0 abbf
00000350: 1f6a 863c 8343 eb3e c34f 8d3e 2e61 57be
00000360: d0fa 113e 3d9d 89bd 8e8e c6be 86dc 863f
00000370: 9da9 f83e 140d c4bf f85b 60bf d115 8ebe
00000380: 3729 563e cf4f ab3e f409 d0bc ad21 463f
00000390: ecd2 ad3c b4fb a9be a0bf e7be a2ff b8bf
000003a0: 17c9 50be 98c9 103e b945 fa3e a28e ae3e
000003b0: d356 313e 4638 0fbd e526 b3be 0987 9f3f
000003c0: 25e5 f93d 5598 4b3f b12c 1c3f 8cbc 243f
000003d0: 15cf 8f3e 5ba2 553a 9186 073f 042a 96bf
000003e0: a496 053f 2869 1d3f 735a 223f fd3d 813e
000003f0: 5377 533e 402d c03e 3b0f 6fbe 9942 febe

fc2.bias f4 [20]
0.1687713 0.33985257 0.05367425 0.24070528 0.018240504 0.19927828 0.23589513 0.2538662
0.2922832 0.29201052 -0.14264554 0.33390698 0.18077734 0.08088877 0.12670958 -0.01636945
-0.5777496 0.04634754 0.14025159 -0.027640386
00000000: 62d2 2c3e 2801 ae3e 88d9 5b3d 727b 763e
00000010: 1c6d 953c 9b0f 4c3e 7e8e 713e c0fa 813e
00000020: 25a6 953e 6782 953e ac11 12be dbf5 aa3e
00000030: b21d 393e 03a9 a53d 28c0 013e 3a19 86bc
00000040: 66e7 13bf ebd6 3d3d 1d9e 0f3e 176e e2bc

fc3.weight f4 [1, 20]
0.57374567 0.8335123 1.5166546 0.6631185 0.82404983 0.65368825 -0.46467006 1.4740914
0.6470746 0.35111582 1.2687007 1.2812189 -0.8444668 -0.7452502 -0.5171236 1.072367
1.1873971 -0.61301064 0.8135166 1.4390118
00000000: ffe0 123f 1061 553f bd21 c23f 22c2 293f
00000010: eef4 523f 1d58 273f 3ce9 edbe 07af bc3f
00000020: aea6 253f 74c5 b33e c964 a23f fbfe a33f
00000030: fa2e 58bf b8c8 3ebf 3662 04bf 5243 893f
00000040: a1fc 973f 44ee 1cbf a042 503f 8a31 b83f
