checkpoint_actor.pth (torch, 490975 bytes, 5 tensors)

fc1.weight f4 [400, 3]
00000000: 7fd8 873e 0211 f1be 455d 10bd 0af4 b2bd
00000010: 94f4 a73e c334 0fbd 4f6a c6bd 9d76 c6bd
00000020: 5a4f 163d 878a c8bd 6a6d 30be 6481 bebc
00000030: b652 4ebe 5cdb 45be ac05 aebc e72a b13c
00000040: fb2e 2fbd 0040 feb8 6225 29be 6b85 cdbd
00000050: 2b20 dabc a783 9cbe 1362 9ebe 4bdf e2bd
00000060: 80c0 3dbe ff69 43bf 90b2 41be 9e9e a43d
00000070: 4362 553f c5eb 1e3e 75ca 26bd cd9d d93a
00000080: 6718 053a 0b7b 923e c312 6dbd b87c 413e
00000090: 9671 38bf a141 54be 1350 38be b3f3 10bc
000000a0: 1318 bf3c b3bc d5bb b5f9 593e 0da2 c63e
000000b0: 2865 a63d d136 333d 70e7 2d3e e15d 5dbd
000000c0: 33ae 7f3b d348 d93c f08f 23bd a7c0 dbbb
000000d0: 0df0 5f3c cda7 e93a ba77 69bd c465 27be
000000e0: 4e69 08bc f1e1 423d 915e a7be ae45 40be
000000f0: 4d45 a6bb 57b3 063d 9542 443d 9a4e 29bd
00000100: a0aa a73c 3af5 7d3c bb24 e43d a31a 1f3e
00000110: 183d 9bbd 8023 223b 6783 cf3c 3af0 28bc
00000120: 6051 44be fe34 26be 3c41 08bd 2c33 85be
00000130: c646 a7be e7a7 dabd 6af6 803d 5a93 b73e
00000140: 5856 173e b33d 2abb 00f8 72bb 80ce 3bbb
00000150: d018 db3c 4a5e c6bc 82f4 333d e058 dc3c
00000160: c841 0e3d ed8b 29bd 1a43 c83b 5bc3 153d
00000170: a07c 203c 7388 49be 84ef b9bd 9886 2bbd
00000180: 6560 2f3d cdb2 0abb 9317 8dbc 14cc 503c
00000190: a24e 293f 5e43 aa3d 9e34 bfbd 4917 c93d
000001a0: 5c8b 143d f653 7d3e c486 d73d a13f 0a3e
000001b0: 00d2 d13d 3c47 c93e 4995 3cbe d088 ebbc
000001c0: c138 b73c f2a3 69bd fd83 84bc 2302 a8bc
000001d0: f7a4 81bc 3e4c 4fbe 47e7 2cbe 885d 2ebd
000001e0: 0faf f53d e073 333e ad9a d93d 17b3 40bd
000001f0: 2a73 453d 4d19 ce3b 1e12 7a3e 658c 3bbd
00000200: ddb4 2d3e 189a 8b3e db98 c13d 7d41 093e
00000210: 87bf a93d 7098 303e 6035 aa3d e7d0 d43c
00000220: 6d21 1e3d d0b8 b1bc 8e33 e2bd 2975 36be
00000230: e171 abbc dc80 d5bd a699 56bc bd20 d53d
00000240: c245 193e 7203 dd3e 5095 d43d fc1b 54bd
00000250: cc4e a23d 1c94 20bd c8ae 583e 2587 d33d
00000260: 36c7 b23d 6c25 483e 4a02 f3be 4ffe 0ebe
00000270: fd0f 0dbd e342 0bbd 5d0a fdbc 2c55 8abc
00000280: f321 1d3b b9c4 40bd f50d e63c eade 4f3e
00000290: 5747 8a3e 6db2 a63c b30e 0a3c 87c3 69bc
000002a0: a95b 203e 3fc8 8a3e 18a1 403d c4a2 39be
000002b0: 06df e2bd 93ca ebbd 9a0b 3bbe c3bb 13be
000002c0: 15d3 b6bc ba1d 8d3e d698 dabd 2462 433e
000002d0: dae8 15bd cd20 abbb 2a78 063d e031 403d
000002e0: 97cb 0abd 80c9 3c3d 6eb8 103c b1ee febd
000002f0: 4687 be3d 4bb2 3ebd 237c 38bd 1a40 1e3c
00000300: d5d5 103d 8a58 323d e077 523c 53ba 8abd
00000310: f7bb 373c 3592 ed3d d763 423d 4332 cf3c
00000320: 732a afbb 13dc fb3d c021 1b3f f91b 2d3d
00000330: 7f67 233d e356 81bc 3ab6 56bc 60fa 103d
00000340: c7a1 25bc 7079 8d3c 231a c53c 0730 e6bc
00000350: 87be 103c eb67 69be 7bcc 73bd feff b8bc
00000360: 32d0 31be f216 d3bd c287 d8bd 3794 8fbe
00000370: ea35 06bf 04a1 0ebe b896 463e 0034 843e
00000380: cdd1 223d a76f 5f3c a77e cbbc 670b 5cbc
00000390: 4abb b73c 7ada 443d 8d03 ed3c 4dc9 59bb
000003a0: 73fb 953b 334f 65bc f5ab 58bd 83ab d3bd
000003b0: 9a99 ec3c 46c9 b03d d8a8 f4be 2319 93bd
000003c0: eedc 573d aff9 cbbe 75fa 84bd f438 2ebe
000003d0: 770b 653e eb1d 02be 1556 c0bd 2443 ab3e
000003e0: 8235 473e 363d 263e 8ba8 0dbf 523e 08be
000003f0: 67a4 73be 4b31 ddbe 5fff 76be 805a 813c
0.2653236 -0.47083288 -0.0352452 -0.08737953 0.32803786 -0.034962427 -0.096882455 -0.096905924
0.03669677 -0.09792047 -0.17229238 -0.023255058 -0.20148739 -0.1932196 -0.021242939 0.021626903
-0.042769413 -0.00012123585 -0.16518167 -0.10035213 -0.026626667 -0.30569193 -0.309342 -0.11077746
-0.18530464 -0.7633361 -0.18915772 0.08038066 0.8335306 0.15519626 -0.04072042 0.0016602814
0.00050771836 0.286095 -0.05787922 0.18895233 -0.7204832 -0.2072816 -0.17999296 -0.008847165
0.02332691 -0.006522739 0.21286662 0.3879551 0.08124763 0.04375345 0.16982818 -0.054044608
0.0039013743 0.026523983 -0.03993219 -0.0067063156 0.013668072 0.0017826498 -0.056998946 -0.16347414
-0.008325888 0.047578756 -0.32689336 -0.1877658 -0.0050741793 0.032885876 0.04791506 -0.041334726
0.020467103 0.015500361 0.11139818 0.15537505 -0.07580012 0.0024740398 0.025331212 -0.010311181
-0.19171667 -0.16231152 -0.033265337 -0.26015604 -0.32671183 -0.10676556 0.06297 0.35854608
0.14779031 -0.0025976717 -0.003707409 -0.002865702 0.02674523 -0.024214882 0.043934353 0.026897848
0.034730703 -0.04139321 0.0061115148 0.03656326 0.009795338 -0.19680957 -0.09078887 -0.041876405
0.04281654 -0.0021163702 -0.017223155 0.0127439685 0.6613561 0.083136305 -0.09336208 0.098188944
0.036265716 0.2473906 0.105237514 0.13500835 0.102451324 0.3931216 -0.18416323 -0.02875176
0.02236593 -0.057041116 -0.016176218 -0.020508831 -0.015825732 -0.20243928 -0.168851 -0.042569667
0.119962804 0.17524672 0.10625205 -0.047045793 0.048205532 0.006289637 0.24420974 -0.045788188
0.16963525 0.27266002 0.09452983 0.13403888 0.08288484 0.1724565 0.08310962 0.025978519
0.038606096 -0.02169457 -0.110449895 -0.1781813 -0.020928325 -0.104249686 -0.013098156 0.10406635
0.14968017 0.4316669 0.103800416 -0.0517845 0.079251856 -0.039203748 0.21160424 0.10328511
0.08729403 0.19545525 -0.47462684 -0.13964199 -0.034439076 -0.033999335 -0.03088873 -0.016886316
0.0023976534 -0.04706261 0.028082827 0.20299879 0.27007553 0.020348752 0.008426356 -0.014267809
0.15659966 0.271059 0.04702863 -0.18128496 -0.110776946 -0.11513247 -0.18266144 -0.14427094
-0.022317449 0.27561742 -0.106736824 0.19080406 -0.036599018 -0.005222416 0.03282944 0.046922565
-0.033885565 0.046090603 0.008833034 -0.124478705 0.09303145 -0.046556752 -0.04504026 0.009658838
0.035360176 0.04354147 0.012845963 -0.0677382 0.011214248 0.116001524 0.047458496 0.025292521
-0.0053456365 0.12297835 0.60598373 0.042263005 0.039893623 -0.015788501 -0.01310497 0.035395026
-0.0101093715 0.01726982 0.024060315 -0.028099073 0.008834488 -0.22793548 -0.05952118 -0.022583004
-0.17364576 -0.10307111 -0.10572769 -0.28042766 -0.52426016 -0.1392861 0.19393432 0.25820923
0.039750863 0.01363746 -0.024840666 -0.013430453 0.022428174 0.048059918 0.028932357 -0.0033231557
0.004577094 -0.013995933 -0.052898366 -0.10335448 0.028881837 0.0863214 -0.47785068 -0.07182529
0.05270093 -0.3983893 -0.064930834 -0.17013913 0.22367655 -0.12706725 -0.09391419 0.33449662
0.19454005 0.16234288 -0.553353 -0.13305023 -0.23793183 -0.4320167 -0.24120854 0.015790224

fc1.bias f4 [400]
00000000: 7f9a 1abc fdb8 fc3e 546a 8d3d ca3d bd3e
00000010: 2bf3 053e e9ad e8be 34c1 233e fcb8 b73e
00000020: a766 753e 3b5a 863e b170 b1bd ed4f 08bd
00000030: 6fcd ce3e b66f 5dbe 1628 47be 3a1a db3e
00000040: 2a8c 9dbe 8fb6 a4bd 5a08 d83e fd0a 8cbe
00000050: 38fa ffbe 70d1 00bf 47ba 073f 24d7 84be
00000060: c31f cd3e bfce 453e 06b9 e23c ed49 8abd
00000070: d12d 02bf aaf3 f8be 6d35 dbbe dbac 5d3e
00000080: 3d6a eebe bb26 b93e 1f50 dbbe ed48 493e
00000090: 0b92 8c3e 8534 e13e f47e babe e4aa 933e
000000a0: d5e9 4d3e f292 98be f29e 43bd 575a 693e
000000b0: 70a7 183e 2db5 d3be 89fc f43e 0724 dd3c
000000c0: 2ddf 22be 943d 023f cb4f 433e e7be eabd
000000d0: 31cd e1be 39a5 003f 716b 073e 3898 84be
000000e0: 7cb2 003e d75c dc3e da83 0e3e 96dd 40bd
000000f0: 8c60 e7be 3778 0dbf 80e3 5cbd 9d45 d3be
00000100: 8675 06bf e8e4 073d ddd4 8cbe 2825 903e
00000110: c639 f2be 0c7c 8abe 0c03 d4be 1773 163e
00000120: 684d cf3e ccff a63e 5a73 ad3d e242 0dbf
00000130: d398 a2be 292a 46be 473d 973d 02a2 e5bd
00000140: aad2 083f abee 043f c973 6bbe 90f5 15be
00000150: cf5b bc3e a51b b4be 458f 233d 1416 f5be
00000160: f892 e43e 783c 943e 6d81 cabe 42ee ac3d
00000170: b6da c43e 2067 023e 80b5 a33e 4827 b6be
00000180: e6be 823c c4c3 98be 535b 30be 3040 713e
00000190: 1e6b cbbe 0035 7c3d 717a 8d3e acbe b5be
000001a0: 848c 5abe 25a9 c53e 22b6 033f 64f4 f0be
000001b0: 0a60 0c3f aabe a8be 3707 f63d 7d20 bbbe
000001c0: f6d0 01bf 2efa 87be 76c9 523e 1cee 823c
000001d0: ad16 b53d 0f62 803d 6ba1 053f 9e13 123e
000001e0: 3b2f 0ebf 0a7e 963e 56a5 93be 13ae 103f
000001f0: ce3c d9be 8e40 04bf 0aa2 bb3e 064d 883d
00000200: f3ac 0dbf bb9a f93d ed62 903e fba3 db3d
00000210: b6ee cf3e d616 a23d 1a6f b23e a14f bbbe
00000220: 5599 ff3e 344f fcbe 9156 203e 3502 743e
00000230: 3404 ed3e fe8c 02be 7750 78bd c4c9 7cbe
00000240: 2e1b 223d 82e8 04bf 9be8 7c3e 3806 0dbf
00000250: da79 9ebe d8f9 47be 5620 44bd df2e ecbe
00000260: a260 6e3e 7890 e7bd ba52 91be 43c5 193f
00000270: b746 b33e 45c0 eabe f993 11be cebf 2ebe
00000280: a497 13be 0a9c 253e 9bb1 993b 93d9 113f
00000290: b394 1b3f 42a2 9abd 76cf cf3b 512a 39be
000002a0: a2ab 2a3e 5944 b13e 319e 88be 3812 0d3f
000002b0: 86bf 0ebe a9e5 4dbe 355c dabe a185 ddbd
000002c0: 2ba6 cd3e a097 00bf feb3 5bbe 65d6 bfbe
000002d0: 57dd 003f 876c 1f3f 6d54 133f 00b5 eabc
000002e0: fc4b a6be 7394 41bc f3bf a6bd abd1 04bf
000002f0: f185 e0be 7493 eabe 24c3 903e 546b 113e
00000300: 3fb4 dd3d dc69 2ebd fe52 8b3e aea3 f23e
00000310: 385d bb3e ad85 c0be c996 083d 66b3 e0be
00000320: ae49 f5be d27d 083f fb9b 0fbf d739 343e
00000330: 6bfb 533e cdef a73e 2431 2dbd 40eb adbe
00000340: 9d29 f63d dbf2 9d3d 9891 f6be 622f 713d
00000350: 4544 aebe 4cc0 133e c00d f53e 8b74 833e
00000360: 82f3 08be 924d a53e 0913 753e 5c6f a1be
00000370: f73a 82be d571 d43e 33b4 0b3e 74c6 2a3e
00000380: 8222 7e3e a159 ab3e 4c4c c93e cf31 833e
00000390: 0bc2 8bbe 2fe2 68be 4bec 9f3e 2794 babe
000003a0: 9cb1 9abe a7c3 cfbe f4d9 0abf 2d0f 50be
000003b0: 768d 0fbf 961d 883e d65d 153f d931 823e
000003c0: 6387 00bf af49 d13e b011 35be 0531 0f3e
000003d0: fa38 15be e7aa 873e f6c1 cbbd 865d 73be
000003e0: dea9 ccbc edd2 ea3e 86a0 6c3e db24 7c3e
000003f0: df13 8f3e 5953 5f3d 875e 7a3e 3983 c1be
-0.009436249 0.49359885 0.06905046 0.36961204 0.13081042 -0.45445183 0.1599167 0.3588332
0.2396494 0.26240715 -0.08664072 -0.03327935 0.40391108 -0.21624646 -0.19448885 0.42793447
-0.30771 -0.08042633 0.42193872 -0.27352133 -0.4999559 -0.50319576 0.5301861 -0.2594539
0.40063295 0.19317149 0.027676117 -0.067523815 -0.5085116 -0.486234 -0.42814198 0.2164797
-0.46565428 0.36162362 -0.42834565 0.19656725 0.27455172 0.43985382 -0.36424983 0.28841317
0.20108731 -0.2979961 -0.047759004 0.22788368 0.14907622 -0.41349164 0.4784892 0.026994718
-0.15905447 0.5087521 0.19073407 -0.11462193 -0.4410186 0.5025211 0.1322458 -0.25897384
0.12568086 0.4303958 0.13917485 -0.04708632 -0.45190847 -0.5526156 -0.0539279 -0.41264048
-0.52523077 0.033177286 -0.27506152 0.28153348 -0.47309703 -0.27047765 -0.41408575 0.14692341
0.40488744 0.32617033 0.08469267 -0.5518018 -0.3175722 -0.1935202 0.073847346 -0.11212541
0.5344645 0.5192668 -0.22993387 -0.14644456 0.36788794 -0.3517734 0.039931554 -0.47868407
0.44643378 0.28952384 -0.3955187 0.084438816 0.38448113 0.12734652 0.3197441 -0.35576844
0.015960168 -0.29836857 -0.17222337 0.23559642 -0.3973016 0.061573982 0.27632478 -0.35497034
-0.21342665 0.3860561 0.5144979 -0.47061455 0.54834044 -0.32957965 0.12013095 -0.36548224
-0.50709474 -0.2655806 0.20584664 0.01598268 0.08842216 0.06268703 0.5219943 0.14265296
-0.5554082 0.29393035 -0.2883708 0.56515616 -0.42429203 -0.51661 0.36647063 0.06655316
-0.55342025 0.121877156 0.28200474 0.10724636 0.4061181 0.07914512 0.3485039 -0.3658419
0.4992167 -0.49279177 0.15658022 0.23828967 0.4629227 -0.12749097 -0.060623612 -0.24686342
0.0395767 -0.5191728 0.24698107 -0.55087614 -0.3095234 -0.19528902 -0.0478824 -0.4612951
0.2327905 -0.11306852 -0.28383428 0.6006662 0.3501489 -0.45849815 -0.14216603 -0.17065355
-0.14413315 0.16172805 0.0046903617 0.56972617 0.6077377 -0.075504795 0.00634187 -0.18082549
0.16667035 0.34622458 -0.2668319 0.55105925 -0.13940248 -0.2010714 -0.42648473 -0.10816503
0.4016584 -0.5023136 -0.2145538 -0.37468258 0.5033774 0.62274975 0.575507 -0.02865076
-0.32479846 -0.011815178 -0.0814208 -0.5188243 -0.4385219 -0.45815623 0.2827388 0.14201099
0.10825395 -0.042581424 0.27211756 0.47390503 0.36594558 -0.37601987 0.033346925 -0.4388687
-0.47907776 0.53316987 -0.5609738 0.17600189 0.20701377 0.3280014 -0.042283192 -0.33968544
0.12019656 0.07712337 -0.48157954 0.05888308 -0.3403646 0.14428824 0.47862053 0.25674853
-0.13374141 0.32285744 0.23933043 -0.31530273 -0.25435612 0.41493097 0.1364296 0.16677266
0.24817851 0.3346682 0.39316022 0.25623938 -0.2729648 -0.22742532 0.31234965 -0.36441156
-0.3021363 -0.40578958 -0.5423882 -0.20318289 -0.5607523 0.26585072 0.5834631 0.25428656
-0.50206584 0.4087653 -0.17682528 0.13983543 -0.14572516 0.26497576 -0.099491045 -0.23766145
-0.024983343 0.4586405 0.2310811 0.24623434 0.27944848 0.054522846 0.24450122 -0.37795427

fc2.weight f4 [300, 400]
00000000: 5c78 923c fad8 1d3d 8901 483d 3d17 aabc
00000010: ca97 3cbc bc5f e73c 6726 a2bc 380b 85bc
00000020: 12b0 25bd 8585 63bd 418d 45bc ce23 6cba
00000030: 9640 843c 4dab 473d 6ff9 4e3d 0c54 273d
00000040: 7f7a 003d ebb4 593d 1255 e6bb bb7e f4bc
00000050: 4cd8 e3bc ce10 46bd 48e1 9bbc 1c38 f83c
00000060: 9a82 d0bc dd0b 2dbd 1beb 763c e36a 523d
00000070: 5764 5dbc 89c0 64bd 5254 46bd 717b 3c3c
00000080: f48f ad3b 01ac 083c c9fc 36bd 2e22 a03a
00000090: 1eae 23bc 51d1 eb3c f304 5f3d 8389 0d3d
000000a0: ea8b 153d 5077 46bd 02fd 43bb 8794 1cbd
000000b0: f341 51bd 7580 493d f103 133d c470 abbc
000000c0: 244c df3a ec20 6bbd 2dc8 59ba a4c7 36bc
000000d0: f480 d13c 2756 ffbc 164c bbbc a6c5 b1bc
000000e0: e2f9 5ebd ba2a eebc e765 023d a2e2 cabc
000000f0: d877 eabc 67f3 8a3c 7b3e 393d dbc6 3abd
00000100: ee72 6cbc 8685 e2ba 0b65 4abd e2ca 67bd
00000110: ca76 4d3d 39ec 61bd 48cd 5dbd d700 47bc
00000120: 62f0 1e3c 8058 98bc 8db6 4a3c b787 e33c
00000130: ca04 66bc 1a15 1dbd 95fb 5dbd 8829 f8bc
00000140: 3b9d 37bd 2499 403d ed6b 66bd f44c 663d
00000150: b8c2 93bc 2e3a aa3c 990a 6b3d 1bce 63bd
00000160: 15ec b23b d83f 24bd 9a80 4b3d cc3a 6c3d
00000170: c10b 85bc 7a9e b53a 1453 b93c 667d 363d
00000180: 41fc 3a3d d7c9 41bd 3ff2 32bd 87de 033d
00000190: c669 0f3d 6e06 54bc f795 573d 2186 3a3d
000001a0: 6ccb cfbc 05fa 7abc 762b 13bd 5fd1 e7bb
000001b0: 56ec abbc 1e84 7cbc 5490 d9bc c844 05ba
000001c0: 6efb 51bd 407d 583d a473 233d 1f4b 843c
000001d0: 6801 853c dec0 b7bc 876c 25bb 191e 8b3c
000001e0: 2c25 343d 26b3 ecbc 1636 1c3d d43b 54bd
000001f0: ded0 4e3d 6af1 7bbb 8cc2 cfbb b464 2d3d
00000200: d3a1 6abd 5c18 58bd 31d9 57bd 700f c0bb
00000210: 5ee6 32bc a4b2 54bd 5942 293d d0fe 45bd
00000220: 6aa8 4cbd 84ed 93bc b1dc 093d 2e7f 213d
00000230: eae9 0ebd 3009 243d ee5b 30bd 5e30 a4bb
00000240: e063 bb3c 54c8 da3c 6562 9fbc 72b9 c73a
00000250: 28b7 093d e9f7 8d3c 8e1b 1f3d 152f 5bbc
00000260: 8870 63bd 7d35 aabb 2c34 c5bc 79ec 49bd
00000270: ed04 23bc 913b 19bd 1400 1bbd 7c73 cdbc
00000280: bdeb 39bd dd38 d43c a856 583d b239 14bd
00000290: 2ab2 3d3d be6e 4f3d 0229 1a3c 4886 1b3d
000002a0: 6961 ebbb 197f 04bd bf7d 593d f905 913c
000002b0: 0fcd 573d bcdf 39bc df7a 69bd f5e5 8cbc
000002c0: 9fcd ffbc f026 033d e98d a1bb 6f95 45bd
000002d0: d9ba 9ab9 a8d5 1dbd 77df 29bd 7a0d 08bd
000002e0: 6bb5 343d e295 f3bc a974 c0bc 59aa 163b
000002f0: 3564 51bd af44 f63b 678a c4bb 1cfd 2a3d
00000300: 2127 d23c 51b0 723c 3235 7cbc b17b e73a
00000310: 244a 9dbc 11dd a5bc d795 103d 8d14 2abd
00000320: e612 283d 073c 66bd 74d9 403d 83f4 58bd
00000330: d678 dc39 9a84 573c ab89 0c3d c581 6a3d
00000340: 743b 1dbd 696e 63bd ce77 25bd 8c2a cebc
00000350: dc6f 83bb ba24 843c 807c 043d 8715 363b
00000360: 89df 423d eef7 58bd 15d2 39bb 7445 45bd
00000370: adad b13c 0f87 73bc d665 4f3d 4133 293d
00000380: 763b 2bbc 2bb2 c83a 1153 34bd 899f fe3b
00000390: dfaf 8dbc 4402 253d 8205 fb3c 4f35 7cba
000003a0: a224 543d e166 303d 36e4 ffbc 021f 623d
000003b0: 5778 0cbd 4186 73bc 94aa 183d ff8c 153d
000003c0: 1380 5f3c e964 673d 6b62 273d dbec a63c
000003d0: 89c0 3c3d 2861 5f3b 81ed 443c f3c0 16bd
000003e0: f6d0 b73c c481 d4bc 0673 243d e8e0 65bc
000003f0: fd79 9dbc 45f0 2fbd e33a 34bc 1ab0 c43b
0.017879657 0.038537003 0.04882959 -0.020763034 -0.011510799 0.028243892 -0.019793702 -0.016240701
-0.040451117 -0.055547256 -0.012057603 -0.0009008021 0.016144078 0.04874735 0.050530847 0.040851638
0.03136682 0.053151052 -0.007029184 -0.029845586 -0.0278131 -0.04835587 -0.01902832 0.030300193
-0.0254529 -0.04224764 0.015070702 0.051371466 -0.013512692 -0.05584768 -0.048420258 0.01150404
0.0052967016 0.00834179 -0.04467467 0.0012217218 -0.009990243 0.028786333 0.05444808 0.03455497
0.036510386 -0.04845363 -0.0029905443 -0.038227584 -0.051088285 0.04919477 0.03589243 -0.020927794
0.0017036241 -0.057404444 -0.00083077216 -0.0111559965 0.025574185 -0.03116901 -0.022863429 -0.021700691
-0.054437526 -0.029073108 0.031835463 -0.02476627 -0.0286216 0.016961766 0.0452256 -0.0455998
-0.014431698 -0.0017282225 -0.04941277 -0.05658997 0.050162114 -0.05515692 -0.05415085 -0.012146196
0.009700866 -0.018596888 0.012372625 0.027774675 -0.014039228 -0.038350202 -0.054195005 -0.030293241
-0.04482768 0.047021046 -0.05625527 0.056225732 -0.018037185 0.020779695 0.057383154 -0.05561648
0.005460272 -0.04009995 0.04968319 0.05767326 -0.016240956 0.0013856434 0.022622623 0.044553183
0.045650724 -0.04731163 -0.043688055 0.03219464 0.035012983 -0.012940986 0.052633252 0.04553807
-0.025365554 -0.015318398 -0.03593012 -0.0070745195 -0.020986717 -0.015412359 -0.026558079 -0.00050837966
-0.051265173 0.052853823 0.039905205 0.016149102 0.016236022 -0.022430833 -0.002524169 0.016982125
0.043980762 -0.028894018 0.038137518 -0.05181487 0.05049216 -0.0038443455 -0.0063403305 0.042332366
-0.057283234 -0.052757606 -0.052697364 -0.0058612153 -0.010919182 -0.051928177 0.04132304 -0.04833871
-0.0499653 -0.018057592 0.033657733 0.03942793 -0.034891047 0.040047824 -0.04305642 -0.0050106486
0.022874773 0.026706852 -0.019456098 0.0015237762 0.033621937 0.017330127 0.038844638 -0.013377924
-0.05552724 -0.0051943646 -0.024072729 -0.049297784 -0.009949905 -0.037410323 -0.03784187 -0.025079481
-0.045390833 0.02590602 0.052817017 -0.036187835 0.04631249 0.05064272 0.009409191 0.037969857
-0.007183243 -0.032347772 0.053098436 0.017703043 0.052685793 -0.011344846 -0.057001945 -0.017199496
-0.031225977 0.032019556 -0.004930247 -0.048238214 -0.0002951238 -0.038533837 -0.04147288 -0.033215977
0.044118326 -0.029734556 -0.023493128 0.0022989719 -0.051120955 0.007515512 -0.005997944 0.04174529
0.025653424 0.014812545 -0.015393542 0.0017660764 -0.019200392 -0.020247014 0.03529915 -0.041523505
0.041033648 -0.05620959 0.04708238 -0.05296756 0.000420517 0.013154173 0.034310978 0.057252664
-0.038386777 -0.055525217 -0.040397458 -0.025166772 -0.0040111374 0.016130794 0.032345295 0.0027783827
0.04757646 -0.05297082 -0.0028353978 -0.04816194 0.02168926 -0.014863743 0.050634228 0.041308645
-0.010451188 0.0015311887 -0.04402453 0.007770483 -0.017295776 0.040285364 0.030642275 -0.00096209807
0.05179275 0.043066863 -0.03123675 0.055205353 -0.034294453 -0.014863552 0.03727205 0.036511417
0.013641375 0.05649272 0.040865343 0.020376613 0.046082053 0.003408501 0.012019516 -0.036805104
0.022438508 -0.025940783 0.040148757 -0.014030673 -0.019223208 -0.04295375 -0.011000368 0.0060024383

fc2.bias f4 [300]
00000000: 0ddd 72bc 9f63 983c 1857 bcbc d752 aaba
00000010: da2d edb8 87db d4bc 4428 13bd 9de4 83bc
00000020: 3c7a b43c 3710 d13b 4aba 913c 6916 eabc
00000030: efda 6b3d c30e 0cbc 2654 a33c f7fb 8ebc
00000040: 8046 e53b eaa9 90bd 0880 53bc c13f bb3c
00000050: a0bc d3bb 8770 14bd cc10 333d 117f 3abc
00000060: b698 19bd 72ea 273d d11a 15bd 083b 053d
00000070: 9cf8 9bbc 48f7 573c 17e1 08bd 3068 4c3d
00000080: 8d8c 81bd e7dc d83c dc7c 0cbd 4877 03bd
00000090: cbb8 933d c4f0 6bbb ab46 933b caff 19bd
000000a0: 1c08 903b f3fc 09bd ef65 8bbc 17ac b2bc
000000b0: 4f12 2d3c 8783 4eba e703 eabc 7266 7d3c
000000c0: f7a6 a8bc 474c 89bd f660 f8bc ad3a 8d3d
000000d0: fb8f 9bbc bca9 5e3c 0a63 dcbc ce7b 30bd
000000e0: 4025 55bc a281 013a 57b6 31bd 98f6 273d
000000f0: 7f35 503c 3784 17bd 9e64 be3d 1fd2 93bc
00000100: 7595 893c 42f6 e8bc 88a7 81b7 95ca cd3c
00000110: 9b14 463d 5a3b bbbc de0b a43c 12de c93c
00000120: bcb5 b9bb 03e9 113d 28f0 0dbd a248 2ebc
00000130: 8ffb 983b ff06 033c 1211 62bd d258 273c
00000140: 0b2d 6bbc db31 94bb d616 f83c ac5d 77bc
00000150: 0843 a3bc 7be5 003c 08a5 443c 06fb 45bd
00000160: 86c4 cebb e8db 163d 40c7 beba 47c4 c23c
00000170: b1b1 e53b 0171 873c 2c0b fc3a bb21 e53a
00000180: f159 c5bc 59d9 2ebc 9959 14bd f0db 30bb
00000190: 2d26 fb3c 605d b93c 3bc6 9fbc 7371 6c3b
000001a0: 2867 2ebd 7e11 063c 521f f1bc dd87 aabd
000001b0: 6caa 25bd 008e 33bd 3d51 52bc 356d 473c
000001c0: 174c ea3c 220f 50bd e572 09bd 3470 253d
000001d0: 5eb2 73bd 6e0d aebc e9ee 92ba 66d0 66bc
000001e0: 6e6c 4c3c f332 50bd 57bc 3f3b 4a1f 1cbd
000001f0: 9094 d83c 0d77 e9bc 4bd0 d9bc 871a 743d
00000200: ad97 763c 1aa5 a33b 1630 283d f8b0 dfbc
00000210: 259d 6f3d d2ae 57bc 92de ca3c a0f2 853d
00000220: 003c fbbc 4dee 5d3d aa29 c23c 3c6a a7bd
00000230: d33d 8fbc 8ede 1ebd a097 56bd 0a97 b23c
00000240: 2a7b 2cbd 4ecd 8cbd fdab 243d b572 e8bc
00000250: ac56 1bbd dd0c 483d fc64 433c adfc f6bc
00000260: 8965 abbc d13c 95bc 083e 0bbd a451 f73b
00000270: 4d1e 1dbd 8e2f c9bc 8d0e 3c3c dedf 09bd
00000280: 9fe2 673d 903b a33b 4f0c 8339 3df6 203d
00000290: 306c 90bc d5bd 093d d4b2 d4bc d42a 3ebc
000002a0: 5238 26bd fa26 283d d8d8 7bbd 70c5 893b
000002b0: c58e 3cbd 5c48 2abc afaa d73c 2d83 483d
000002c0: ab7f 45bd a2a0 63bd 6007 7b3c 27b4 933c
000002d0: 9f07 a53c e541 8e3c 0e84 06bd 140d 623d
000002e0: eaa0 3b3d 975f 07bc 1056 773d 76e6 b1bc
000002f0: 2de8 57bd 5715 a3bb c81f 2bbb d048 8dbc
00000300: d58a 4dbd e472 b5bc efd7 403d 5ca1 8c3c
00000310: 03b6 343c cee3 903c 26a7 173d 16e0 e1bc
00000320: da65 7fbc d1a7 16bd 4016 4bbd e749 fc3c
00000330: f7ed 0ebd b76f ddbc fc36 6c3d 923f 1e3d
00000340: 5d4f 0f3d 2d8b 213d 8c80 1cbd cc73 9a3c
00000350: 50fe 54bd bbcc bb3c 37b3 9b3b 61d3 f03c
00000360: 065a e6bc 03ec 213d cc08 0b3d 9a49 87bd
00000370: 100e ca3c 0cae dcbb cd17 5fbc a13f a7bd
00000380: f6d8 cf3c 6105 503d 186f 903c 0c1c ddbc
00000390: 7853 73bc f677 3e3d c573 643d a8d3 b33b
000003a0: 6c66 80bc dacf 62bd 17a4 13bd 3613 80ba
000003b0: cc77 8abc d488 883c d8a9 593c f18f b6bc
000003c0: a478 293c d99c 0d3d cf2c f0bc a9e9 44bd
000003d0: 8577 5dbd 80ec 2dbc 3ac8 0bbd 16d4 5bbc
000003e0: c47f 063c 5bc9 42bd 93b2 10bd cbb5 0f3b
000003f0: 8dc2 01bd 9980 35bc dd54 d3bc 4ea6 2fbc
-0.01482321 0.01860219 -0.022990748 -0.0012994659 -0.00011309581 -0.025983585 -0.035927072 -0.016100222
0.022030942 0.006380107 0.017789025 -0.02857514 0.05758184 -0.008548441 0.019937586 -0.01745413
0.0069969296 -0.070636585 -0.012908943 0.022857549 -0.006461695 -0.036240127 0.04371719 -0.011382834
-0.037499152 0.04099507 -0.036402527 0.032527 -0.019039445 0.013181515 -0.033417787 0.04990405
-0.06325636 0.026472522 -0.034298763 -0.032096177 0.07212981 -0.0036001662 0.0044945083 -0.037597455
0.004395498 -0.033688497 -0.01701638 -0.021810574 0.010563447 -0.00078778755 -0.028566314 0.015466319
-0.020587428 -0.06704002 -0.030319672 0.06895957 -0.018989554 0.0135902725 -0.026902694 -0.04308682
-0.013009369 0.0004940276 -0.043386783 0.041006655 0.012708067 -0.036991324 0.09296535 -0.01804453
0.0167949 -0.028437737 -1.5456011e-05 0.025121013 0.048359495 -0.02285545 0.02002519 0.024642024
-0.0056674164 0.035622608 -0.03465286 -0.010637434 0.00466866 0.0079972735 -0.05519206 0.0102140475
-0.014354001 -0.004522545 0.030284327 -0.015098017 -0.019929424 0.007867212 0.012002237 -0.048335098
-0.0063100485 0.036830813 -0.0014555231 0.023775233 0.007009708 0.016533377 0.0019229404 0.0017481366
-0.024090739 -0.010671937 -0.03621826 -0.0026986562 0.030657852 0.022627532 -0.019503703 0.0036078363
-0.042578846 0.008182881 -0.02943388 -0.08326695 -0.04044573 -0.043836594 -0.0128367515 0.012172033
0.028600736 -0.05079568 -0.033556838 0.04039021 -0.059496276 -0.021246638 -0.0011210117 -0.014087772
0.0124770235 -0.05082984 0.0029256546 -0.038115777 0.026438028 -0.02849915 -0.02658858 0.05959561
0.015050811 0.004994047 0.041061483 -0.027306065 0.058499474 -0.013164239 0.024764333 0.06540418
-0.030668259 0.05418234 0.023701508 -0.081745595 -0.017485535 -0.038786463 -0.052390695 0.021800537
-0.042109646 -0.06875096 0.040203083 -0.02837501 -0.037924454 0.048840392 0.011925932 -0.030149782
-0.02092244 -0.018217476 -0.033994704 0.007547574 -0.038358975 -0.024558809 0.011478079 -0.033660762
0.056612607 0.0049814656 0.00024995438 0.03929733 -0.017629713 0.033628304 -0.025964178 -0.011606891
-0.040581055 0.041052796 -0.061486095 0.0042044446 -0.046034593 -0.010393228 0.026326505 0.048953224
-0.048217457 -0.055573113 0.015321583 0.01803024 0.020145236 0.017365405 -0.03284078 0.055188254
0.045807756 -0.0082625365 0.06038481 -0.021716338 -0.052711654 -0.004976909 -0.0026111472 -0.017246634
-0.05018123 -0.02214951 0.04708093 0.017166786 0.011029723 0.01768675 0.03702464 -0.027572673
-0.015588248 -0.036781136 -0.049581766 0.030796958 -0.03489491 -0.027030809 0.057669625 0.038634844
0.034987796 0.03943937 -0.03820853 0.018854044 -0.052000344 0.022924772 0.0047515887 0.029397668
-0.028119098 0.03953172 0.033943936 -0.06605835 0.024664909 -0.006734615 -0.013616514 -0.08166433
0.02537201 0.05078638 0.017631099 -0.026990913 -0.0148514435 0.046501122 0.05577447 0.005487878
-0.015673839 -0.055374004 -0.03604516 -0.000977135 -0.016902827 0.016666807 0.013285123 -0.022285433
0.010343704 0.03457341 -0.029318241 -0.0480744 -0.05406906 -0.010615468 -0.034126498 -0.013417264
0.008209173 -0.04755531 -0.03532655 0.0021928425 -0.03167968 -0.011078023 -0.025797302 -0.0107208025

fc3.weight f4 [1, 300]
00000000: 989e ff39 2f88 2e3e 1de1 0dbf be3c 9c3e
00000010: d043 0b3a 7452 66bb f6d6 923d 1d9b 843f
00000020: 0751 4fbe e54e 2cbe 9341 733c 7b30 27be
00000030: fb47 ee3d 4aec 063f 0c28 8bbd 3bcc 98ba
00000040: 1c24 dfbe 7170 40be a814 703d e980 22be
00000050: 6fb0 13bd 2afa 0ebb 4bb7 b93d 0c3d 5f3d
00000060: ac82 b23e 52a8 2dbd db3c b6ba e9d6 18bd
00000070: 57ec 92be 5de7 5bbe eb98 2bbb 8ef1 383e
00000080: 1a6d 9c3e 804c d93d 0397 0a40 9b0c 523d
00000090: 2ba6 fbbc e709 a33a 20b8 053e 9c3d 40ba
000000a0: 2189 4cbd a67d b7bd 1764 1cbd 0d61 af3d
000000b0: 34bd b837 cafc 023f 17c9 553d 7243 713e
000000c0: 2644 01bb 73b0 99be a03e 04bb c9b0 5fbe
000000d0: 5bec a43e 7ed5 1e3d 6642 16bb b703 bcb9
000000e0: 0958 243b f1af 4cbe e6ba 60be 6711 38bb
000000f0: 9ef9 7b3e 1ea7 993d 285e 6dbe b63d 253b
00000100: 9baf 02be 438a d7bd 4bd8 55be 352b 8c3a
00000110: 0eee 9d3d 8010 5e3e d943 9d3d ba9d 713d
00000120: db9f 7dbe 554d 953e 6bd3 d4b9 c45e 7cbd
00000130: bafe c63d 72ef 013a af90 ed3b 439e a23c
00000140: ebd4 06be 961e b03d af71 c13a 5ce5 1bbe
00000150: 4459 a8be b528 23be e569 2bbf 26b4 bdbe
00000160: d893 11bb 340e df3d cbce 923f 5d95 0d37
00000170: df0c 173d cc06 2abf 059a 5abe 6422 ccbd
00000180: 920e 023e f4d1 9e3d c4f2 84ba 1bd7 403d
00000190: 11d0 943a d6b6 18bd e4f6 81be 451e 063a
000001a0: 7565 69be b028 47be d66e 97bb 00ec 3ebe
000001b0: fb5a 2f3b 32a1 a5ba 0ed5 54bb 0678 c73e
000001c0: 0a29 42bb 4b92 993d b5f5 3ebb 944c 293a
000001d0: 63a7 b03d c100 2bbe 5d9b 633e 6c40 f6bd
000001e0: 8882 bcbe dc3e 0cbe 1a90 353f d5c0 0fba
000001f0: 0461 b0ba 3474 293b 9cb0 19be 7c5b 8dbd
00000200: a2ec 14ba 1e6d f5c0 3306 6eba 363f 0fbb
00000210: 8c06 41be ac65 d63d 9fe2 d2ba 57d0 93bc
00000220: e9c2 9d3c 5efc 1dbd 9e40 15bb 964d 82be
00000230: aea3 bdba 13bd 313d 3eab 1b3b 3092 0e3f
00000240: d702 083a 4d3d e8be 84e7 25bf a485 ceba
00000250: e9e7 323c da2d 4a3f 6b3e 9e3d 1b81 bb3d
00000260: aa63 84bc 1e33 5dbe 4859 09bc 17c0 15ba
00000270: d966 3eba b424 25be 4b26 3dbe 7ed8 153b
00000280: 525b ddbd 5b26 23bb 2ff0 ac3c c85f f1ba
00000290: 06cf 58ba d7d3 67be fb34 5fbb 0f70 adbe
000002a0: 73b2 16bf 907e b03d 7875 d4bd 2501 5540
000002b0: 7b38 a03a 865e 5f3b 1520 2f3f d56c 02be
000002c0: 4260 0d39 49e9 b53d 8703 a8ba 93ea 6ebd
000002d0: 582b aebd 4afd 193b c5c7 a6be 7a4c c83d
000002e0: 5e30 07ba 7884 0c3b bde1 0cbe 9c34 63be
000002f0: 0226 663a 24a9 af3e 4179 72be 2630 433e
00000300: 9749 e8be ece2 50bd ec25 573f 9544 17be
00000310: 6b68 2fbe 2953 c73a f842 4dbe f8c3 8b3d
00000320: e109 e3ba 4098 9f3a 90f4 2cbb 92c5 b93d
00000330: 3438 a93a bdb2 b8ba f15e e53e 2e07 753a
00000340: 8234 91be 8420 1f3f 66d9 563d caf2 ff3b
00000350: ede8 0c3e 0c95 13bb 7057 89bd e90d ceb9
00000360: dd0f 953d 7744 633b aa55 ba3d efa6 3ebe
00000370: 137d 293e 7d25 40be 72ae c1b8 2a34 46be
00000380: 37c7 4abe fd4a b03d 65f3 013d 1524 223d
00000390: d318 0b3f 90f1 58c0 d492 563e 25d0 97be
000003a0: 32ef 573d 3c4a 89bd a143 d23a 9f23 073c
000003b0: 63b7 163b 98ad 9fbe 37bb a3be 1426 77be
000003c0: 430c 44be b783 433f 49c2 8b3d ff98 693e
000003d0: 09f2 e5ba 966d bdb9 a4e0 7bbd a24c 853f
000003e0: feac ec3c 8861 94ba 462e 9639 6d72 d4bc
000003f0: f15f 203b 4c0a 3e3b 4bf7 d63a f68f 9a3a
0.00048755552 0.17044137 -0.5542162 0.30515093 0.0005312534 -0.003514436 0.07169907 1.0359837
-0.20245753 -0.16826971 0.014847177 -0.16327088 0.11634823 0.527043 -0.06794748 -0.0011657545
-0.43582237 -0.18792893 0.05861345 -0.15869488 -0.036056932 -0.002181659 0.090681635 0.05450158
0.3486532 -0.04239685 -0.0013903634 -0.03731433 -0.28695938 -0.21474977 -0.0026183676 0.18060896
0.30551988 0.10610294 2.165467 0.051281553 -0.030718883 0.0012438864 0.1305852 -0.0007333399
-0.049935464 -0.089595124 -0.03818139 0.08563433 2.2022614e-05 0.51166975 0.052193727 0.23560885
-0.0019724458 -0.30017433 -0.002017893 -0.21844782 0.32211575 0.03877782 -0.002292776 -0.00035860922
0.0025076887 -0.19988991 -0.21946296 -0.0028086544 0.2460694 0.07502578 -0.23180449 0.0025213785
-0.127623 -0.10524418 -0.2088329 0.0010694029 0.07711421 0.21685982 0.076789565 0.05898831
-0.24768011 0.29160562 -0.0004059331 -0.061613813 0.09716554 0.00049566396 0.0072499136 0.019850856
-0.1316716 0.08599584 0.0014758612 -0.15224212 -0.32880604 -0.15933497 -0.6695846 -0.37051505
-0.0022213366 0.10891381 1.1469358 8.439031e-06 0.03687751 -0.6641662 -0.21347816 -0.09967497
0.1270087 0.07754889 -0.001014315 0.04708014 0.0011353513 -0.03728374 -0.25383675 0.0005116205
-0.22792609 -0.19449115 -0.004621367 -0.18644714 0.002675711 -0.0012636541 -0.0032475623 0.38958758
-0.0029626512 0.07498606 -0.0029138152 0.00064582494 0.086256765 -0.16699506 0.22227235 -0.12024006
-0.36818337 -0.13695854 0.70923007 -0.00054837513 -0.0013456647 0.0025856616 -0.15008777 -0.06902215
-0.0005681013 -7.66957 -0.0009079903 -0.0021857745 -0.18850154 0.10468611 -0.0016089267 -0.01804368
0.01925798 -0.038570754 -0.002277411 -0.25449818 -0.0014468336 0.043393206 0.0023753191 0.55691814
0.00051884115 -0.4535927 -0.6480639 -0.0015756381 0.0109195495 0.78976214 0.07726749 0.09155484
-0.016160805 -0.21601531 -0.008383103 -0.00057125225 -0.00072632503 -0.16127282 -0.18471639 0.0022864635
-0.108084336 -0.0024894688 0.021110622 -0.0018415386 -0.0008270595 -0.22639404 -0.0034058678 -0.33874556
-0.5886604 0.0861789 -0.10373968 3.3281949 0.0012223864 0.003408344 0.6840833 -0.12736829
0.00013482667 0.08882386 -0.0012818434 -0.058329176 -0.08504361 0.002349692 -0.32574287 0.09780212
-0.00051570486 0.0021441262 -0.13757987 -0.22188038 0.00087794673 0.34308732 -0.23679067 0.19061336
-0.45368645 -0.05099766 0.8404224 -0.14772256 -0.17129676 0.0015207279 -0.20045078 0.068244874
-0.001732167 0.0012176111 -0.0026390888 0.09070887 0.0012910427 -0.0014091354 0.44798997 0.0009347078
-0.28360373 0.6215899 0.05245342 0.007810925 0.13760729 -0.0022519259 -0.067061305 -0.00039301746
0.07278416 0.003467826 0.090983704 -0.18618368 0.16551618 -0.187643 -9.23545e-05 -0.19355837
-0.19802557 0.08608053 0.03172626 0.03958519 0.54334754 -3.3897438 0.20954448 -0.2965099
0.05271835 -0.06703612 0.0016041884 0.008248239 0.002299749 -0.3118713 -0.3197877 -0.2413562
-0.19145302 0.76372856 0.06824166 0.2281227 -0.0017543446 -0.00036130537 -0.06149353 1.0414011
0.028891083 -0.001132057 0.00028644706 -0.025933469 0.0024471248 0.0028997837 0.0016400603 0.0011792171
