checkpoint_actor_fc20_2000eps.pth (torch, 4191 bytes, 5 tensors)

fc1.weight f4 [20, 3]
00000000: a965 c2be d64c 28bf 9768 22bd 5813 54be
00000010: 66f0 4ebf b1b7 13bf 1d5f 13be 41bc 9cbf
00000020: 36c1 dfbe 1261 9c3c 5251 383f b658 d5bd
00000030: cf45 5e3e 2778 cc3f 5202 953d 8b07 1dbf
00000040: 69ee d83d f590 0e3e c326 15bf eb4f 26be
00000050: 0b2a 5cbe bbab a1be 1d9d 96bf 91e4 59bf
00000060: 4355 d13e 6864 163f a1ae 273e 350f 92be
00000070: db6f a0bf 9256 5fbe 18ed a73e 88f0 a73e
00000080: c97f 003f 02d5 1ebf e710 413f 195e 8cbf
00000090: 1feb 983d 2101 1ebb 27b8 91bc b7ed 0e3e
000000a0: 9f60 833f 6e61 ad3d 0658 1bbf 9c9d 66bc
000000b0: 3e39 453e 51d9 d63d c018 5dbf e34a 97bd
000000c0: 33b4 f9be f8ff 923e 495f 0e3f 9585 103e
000000d0: 1a0c ddbd 286d 1e3d a922 b53e c02d a03e
000000e0: b55c d93e 1e33 fbbe 9ad3 863f 3b83 013d
-0.37968186 -0.6574224 -0.039650526 -0.20710504 -0.8083557 -0.57702166 -0.14391752 -1.224495
-0.43702096 0.019089255 0.71999085 -0.10417311 0.21706317 1.5974168 0.07275833 -0.61339635
0.10592348 0.13922484 -0.5826227 -0.16241424 -0.21500413 -0.31576332 -1.1766697 -0.8511439
0.40885362 0.5874696 0.1637521 -0.28527227 -1.2534136 -0.21810368 0.32798076 0.32800698
0.50194985 -0.62043774 0.75416416 -1.0966216 0.07466721 -0.002410956 -0.017788006 0.13957869
1.0263861 0.08465849 -0.6068119 -0.014075663 0.19260117 0.104906686 -0.8636589 -0.073873304
-0.48770294 0.28710914 0.55614144 0.14113458 -0.10793324 0.03867832 0.35378006 0.31284904
0.42453542 -0.49062437 1.0533326 0.03161929

fc1.bias f4 [20]
00000000: 1e87 2b3f cd9b f6bd bd7e a33e bfd3 383f
00000010: 52e8 8f3f 9df4 203f 6c5b 1e3f 2bec 64be
00000020: f7ab 4cbe d414 0a3e e35b 80bd 0c8c c63e
00000030: 5b65 c2be 5bdd 603f 54d1 c73e ff8c 1f3f
00000040: 10d2 6b3e 782b 0abf c236 363e 9596 b43e
0.6700305 -0.120414354 0.3193263 0.721981 1.1242774 0.6287325 0.6185825 -0.22355716
-0.19987474 0.13484508 -0.06267526 0.38778722 -0.37967953 0.8783776 0.39026892 0.6232452
0.23029351 -0.5397258 0.17794326 0.35271135

fc2.weight f4 [20, 20]
00000000: 540c fc3e 0f65 03c0 01dc aabf 32eb 703e
00000010: 3215 c4be 0833 0c3e c544 e0bf c0b3 a9bd
00000020: 5cea bcbe 3e0b 02bf 04aa 38be 642c debf
00000030: a886 323e c697 1f3e b4b2 c23e fb81 043f
00000040: aba8 813e 1ab2 193d 040e 2abd 7cbc 193f
00000050: 4a39 4a3f a9e8 6abf ab3b ddbc 920b bf3d
00000060: 404e 8c3e 254c d9bb 964f 99be 6402 1f3f
00000070: f3c4 5ebe 1bbb e7bf 856d 2bbf 6a86 bc3e
00000080: 9db4 873d 980f 373e d1ba f73e 84fe 8d3e
00000090: c8a5 a1bd 2949 303d 7ba3 70be cddf 473f
000000a0: 94a7 20c0 aa66 80bf 3071 a8bf a64b 7e3e
000000b0: 9cac 9a3e 0ed6 0cc0 b995 c2bf baa5 953f
000000c0: e9c1 c73e 5ced edbe 9d6d 8dbe 3dfd 92bc
000000d0: 8932 a93d 4b51 0d3f 2152 53bf 3c46 cabf
000000e0: 49b3 27bf ceaf d23d 20d6 d73b 83a3 313f
000000f0: c661 e43e 3d1a 2fbf ddf5 c8be e7e8 c5be
00000100: 04d8 93be 6c46 43bd bee4 ecbe 5d9a b23f
00000110: 8fe0 91be 1c72 8cbf bbeb 57be 84b8 533e
00000120: 6c89 6d3b b01e 5fbe 2cae b83e f06a d13e
00000130: aefc 953e 0e8f a9bd 1843 19be 1743 a53e
00000140: 3609 0e3f b972 7bbf 3010 aabe 6530 75be
00000150: 33ee 1bbd 2ba1 c3bb 7eef f3be 4465 a63f
00000160: 4270 cabe f81a 9bbf d8cb 7fbe 480c f93d
00000170: b8dd cd3d 93d6 db3e c178 e93e c926 ad3e
00000180: aef8 bc3e 890a 173d 4f09 a2be ff7e 183f
00000190: 482b 0b3f f925 83bf 3c78 d2be c659 73bd
000001a0: b2cc 913d 08a7 553e e878 23bf 1055 883f
000001b0: acd5 efbe 3e88 b7be 2160 f9be 67b4 123c
000001c0: e542 0b3e 81dc 1bbc 5e15 0a3e 096b 193f
000001d0: 2075 b23e f2fc dfbc bfd3 8dbe f20d 223f
000001e0: 8085 a8bd 128f 6f3f 77b6 563f 26df 453e
000001f0: 3751 863d 3281 133e 623e 213f 006c 14bf
00000200: caf1 1d3e 2588 7e3f 75a9 e33e 9ead a13e
00000210: 7ceb 3bbe 16ed e33d ef8a d6bd f2d7 8ebe
00000220: 5333 dbbc 48e8 1ebd d833 87bb 639c 75be
00000230: 0757 a63e fea5 6dbf b488 78be 01b7 0d3c
00000240: f7d3 b73e 1677 79bf 6241 23bf 428f 873f
00000250: aac5 f5be 8773 49bf 3c36 13bf a511 c83e
00000260: c1a2 313e 5c0a 2b3e adeb ccbe 6861 1e3f
00000270: 89b4 39bf 90df 58be 015c 4dbe 3f22 103f
00000280: 9c49 2a3f 5da4 80bf 7799 55be 0763 1cbd
00000290: 1d5d efbd ff69 283e e127 e5be e60d 7e3f
000002a0: 2791 38bf 8a73 dcbe a4a4 11be c744 5cbd
000002b0: 1e9b aa3d 2346 01be 271f d93e 8033 293f
000002c0: 14e7 933e 920d 15be d0cf 2ebe af1a 163f
000002d0: 1581 113f 5bcf 73bf de34 68be 4ff5 81ba
000002e0: 0a42 d5bd 4510 173e db44 11bf 30e7 863f
000002f0: 13f4 43be 6bf7 2dbf 9ab0 99be 3015 913d
00000300: 4823 4fbe 707e 093e e868 993e 2b1e 9c3e
00000310: 905d 843e 8308 4f3d 0f58 e0be 1bd8 323f
00000320: 8c41 35bf a15f 03bf 7ccb cbbe db3c 8cbe
00000330: 3bb2 473f 4534 f3bd 51e9 9abf 209d 8d3f
00000340: 370e 5f3d b523 953e 3b1c 64be 4dd8 b2bf
00000350: 1f6a 863c 192f 2c3f 3f0c 873e db18 a0bf
00000360: c715 373e 3d9d 89bd 57c7 cdbe 66c6 963f
00000370: 36ce 033f 035f 27c0 a8e5 73c0 06d7 4cbd
00000380: 3306 c03d 367d 683e 9240 c2bf 21d4 333f
00000390: 7540 c03c a2a9 37bf c40a d3be 2d9f a7bf
000003a0: 17c9 50be a182 c73d 8d43 003f 3f33 993e
000003b0: 788d 443e 4638 0fbd fee6 a3be 2d56 803f
000003c0: f49e 25be 0f7d 613f ea87 0b3f 1024 253f
000003d0: 964d d03e 7184 493d 68bf 2c3f 6d2c 81bf
000003e0: b6db 2a3f b1ea 643f aa33 193f 0252 b53e
000003f0: 5377 533e 486a fa3e 35af 50be 42f9 27bf
0.49228156 -2.0530431 -1.334839 0.2352722 -0.3829742 0.13691342 -1.7520987 -0.08286238
-0.36897552 -0.50798404 -0.18033606 -1.7357297 0.1743418 0.1558524 0.38026965 0.51760834
0.25323996 0.037523367 -0.041517273 0.6005323 0.78993666 -0.9176126 -0.027005991 0.09328379
0.2740345 -0.0066313916 -0.29943532 0.6211302 -0.21754818 -1.8103975 -0.6696399 0.368213
0.06626246 0.17877042 0.48384717 0.27733243 -0.078929484 0.04303852 -0.23499863 0.7807587
-2.5102282 -1.003133 -1.3159542 0.24833545 0.30209816 -2.2005649 -1.5201942 1.1691201
0.3901513 -0.46470153 -0.2762269 -0.017943019 0.08261592 0.5520217 -0.82547194 -1.5802684
-0.6550794 0.10287438 0.006586805 0.69390124 0.44605845 -0.6839941 -0.3925008 -0.38654253
-0.28875744 -0.04767458 -0.46268266 1.3953358 -0.28491637 -1.0972323 -0.21086018 0.20675856
0.003624524 -0.2178905 0.36070383 0.409019 0.29294342 -0.08279239 -0.14967 0.32277748
0.55482805 -0.9822193 -0.33215475 -0.23944242 -0.03806896 -0.0059701405 -0.47643656 1.2999654
-0.3953877 -1.2117605 -0.24980104 0.121605456 0.10052055 0.42937145 0.4559994 0.33818653
0.36908478 0.03687528 -0.31647727 0.5956878 0.54362917 -1.0245963 -0.41107357 -0.059411786
0.07119121 0.20864499 -0.63856363 1.0650959 -0.46842706 -0.35846132 -0.48706153 0.008954144
0.13599737 -0.009513021 0.13484713 0.5992895 0.34854984 -0.027342293 -0.27700612 0.6330253
-0.08228588 0.9357768 0.8387217 0.19323406 0.06558459 0.14404753 0.62985814 -0.57977295
0.15424266 0.9942649 0.44465223 0.31577772 -0.18351549 0.11129205 -0.10475718 -0.27899128
-0.026757872 -0.03879574 -0.0041260533 -0.23985438 0.32488272 -0.9283141 -0.24270898 0.008649589
0.35903904 -0.97447336 -0.6377164 1.0590594 -0.48002368 -0.78691906 -0.5750463 0.39075962
0.17347242 0.1670317 -0.40023556 0.6186738 -0.725411 -0.21179032 -0.20054628 0.56302255
0.6651857 -1.005016 -0.20859323 -0.038180377 -0.11687682 0.16446684 -0.44756988 0.9923996
-0.72096485 -0.430569 -0.14222962 -0.05377653 0.083303675 -0.12624411 0.4240658 0.6609421
0.28887236 -0.14555958 -0.17071462 0.58634466 0.5683759 -0.95238274 -0.22676417 -0.0009915027
-0.104129866 0.147523 -0.5674569 1.0539303 -0.19136076 -0.67955655 -0.3001755 0.07084119
-0.20228302 0.13427138 0.2996285 0.30491766 0.25852633 0.050545227 -0.43817183 0.69861
-0.7080314 -0.51317793 -0.39803684 -0.2739018 0.78006333 -0.11875204 -1.2102453 1.1063576
0.054456916 0.29128805 -0.22276394 -1.397226 0.016408024 0.67259365 0.2637653 -1.2507585
0.17879401 -0.06719444 -0.40191147 1.1779296 0.5148653 -2.615174 -3.810892 -0.05000975
0.093761824 0.22704014 -1.5175955 0.7024556 0.023468236 -0.71743214 -0.4121915 -1.3095452
-0.2038921 0.09741712 0.50103074 0.2992191 0.19194591 -0.034965776 -0.3201217 1.0026299
-0.16173917 0.8808145 0.54504263 0.6450815 0.40684193 0.04919857 0.6747956 -1.0091683
0.667415 0.8942061 0.5984446 0.3541413 0.20650987 0.4890921 -0.20379336 -0.6561471

fc2.bias f4 [20]
00000000: 532c c83c 0f31 c43e cc8d a8bc 7f3d a33c
00000010: 5da8 debd 4940 d03d b621 ae3e 56ab c53e
00000020: 7336 483e 935e 4b3e 2e02 04bf 0583 243e
00000030: 6860 923e 8d40 3e3e 53ee 8c3e 5f73 0abe
00000040: 1adb 04be cf89 1a3e f78f 193d 32bd 863e
0.024435198 0.3831868 -0.020575427 0.019926785 -0.108719565 0.101685114 0.34010094 0.3860728
0.1955202 0.19860296 -0.51565826 0.16065605 0.28589177 0.18579312 0.27525577 -0.13520573
-0.12974206 0.15091632 0.03749081 0.2631622

fc3.weight f4 [1, 20]
00000000: 95b2 323f 67a6 943f f287 8040 27b3 403f
00000010: a734 473f 5fc8 213f 4d5a 00bf 26d7 d83f
00000020: 020e 363f aeb2 923e 7304 0d40 b371 a73f
00000030: d64f 60bf 9875 48bf 5cf6 29bf 6c8f 823f
00000040: ed44 ad3f 3255 26bf 2834 423f c3f7 f73f
0.69803745 1.1613282 4.016595 0.75273365 0.77814716 0.6319637 -0.5013779 1.6940658
0.71115124 0.28651947 2.2033966 1.3081573 -0.8762182 -0.78304434 -0.6639154 1.0200019
1.353666 -0.6497375 0.75860834 1.9372486
