checkpoint_critic_fc50_2000eps.pth (torch, 13543 bytes, 5 tensors)

fcs1.weight f4 [50, 3]
1.3179717 3.3795443 0.71656275 0.4301619 -2.5583642 -0.5082387 0.7177097 0.72528875
-0.08111097 -1.280392 -0.9818768 -0.4007625 1.4021925 3.0685492 0.50297004 -0.057517774
0.07161456 -0.049221653 -1.1251812 2.7819698 0.35520357 -0.24840288 -0.050347112 -0.24090298
0.9874861 4.8423176 1.2529793 -0.81262094 -0.26553974 -0.41788197 -1.1016455 3.6575305
0.42878184 -2.102689 -1.3403275 -0.3035642 -1.2242526 -0.5646762 -0.4000986 1.860642
-1.960976 -0.45912296 -2.5141711 0.7140974 -0.107280836 -2.1626296 -0.91519123 -0.8677055
1.7384416 1.3623507 0.66771895 0.07069272 2.0033553 0.27191374 0.034089956 0.063373856
0.015574964 0.12890771 0.13791287 0.02755792 -2.1071837 -1.6841382 -0.6808793 -0.593561
1.6754303 0.33523515 -1.0782962 0.48138732 -0.03471645 1.6956695 1.4244912 -1.200117
0.12028768 0.06960079 -0.06807603 -2.578281 -0.42266142 0.33608106 -0.062287852 0.0493443
-0.046575878 -1.906996 1.3082722 -0.18479824 -1.1881362 -0.5761162 -0.41359302 -1.1063302
-0.5289591 -0.3752199 -4.160397 1.0317948 -1.0781995 0.02378598 -0.06398229 -0.00067426765
-0.6909502 -0.116523616 0.30353054 -0.48754352 0.56822807 -0.2898305 2.4553688 3.9257748
0.77240485 -1.5636663 -0.82940245 -0.61897767 -2.5213182 0.06696174 -0.21513143 -0.78151613
1.2365208 0.20626613 -0.5136994 2.7000992 0.5424308 -0.251016 2.2988865 0.04347293
-0.8598845 -2.5092127 -0.7178154 0.029174589 -0.10382676 0.0007490338 -0.48416588 -0.23962808
-0.35453495 -1.0163343 -2.32529 -0.57596534 1.2311748 1.9407164 0.53477013 -0.07682479
-0.0058680857 -0.02447829 -1.0610523 -2.9871285 -0.7733328 0.8134452 1.9011486 0.49786818
0.14914642 2.7797937 0.5370831 -1.3556895 -0.66827184 -0.25814676
00000000: 4cb3 a83f 744a 5840 a870 373f 2e3e dc3e
00000010: 3dbc 23c0 ee1b 02bf d3bb 373f 86ac 393f
00000020: 821d a6bd e3e3 a3bf 475c 7bbf be30 cdbe
00000030: 0b7b b33f 1c63 4440 a5c2 003f c297 6bbd
00000040: a8aa 923d a59c 49bd f005 90bf cb0b 3240
00000050: 3edd b53e 535d 7ebe c638 4ebd 45af 76be
00000060: e4cb 7c3f 44f4 9a40 a061 a03f ed07 50bf
00000070: d3f4 87be a0f4 d5be b802 8dbf fb14 6a40
00000080: 4b89 db3e 7592 06c0 da8f abbf c46c 9bbe
00000090: 4fb4 9cbf 9f8e 10bf b9d9 ccbe 8429 ee3f
000000a0: 4301 fbbf 2a12 ebbe 2ee8 20c0 16cf 363f
000000b0: 0eb6 dbbd 8668 0ac0 f949 6abf f321 5ebf
000000c0: 4185 de3f 8261 ae3f a1ef 2a3f 58c7 903d
000000d0: f936 0040 4738 8b3e e9a1 0b3d 27ca 813d
000000e0: 222e 7f3c 6200 043e 0839 0d3e 26c1 e13c
000000f0: 19dc 06c0 d791 d7bf 1b4e 2ebf 9df3 17bf
00000100: 8074 d63f f1a3 ab3e 9c05 8abf 6678 f63e
00000110: d632 0ebd b30b d93f ba55 b63f 6f9d 99bf
00000120: 6359 f63d dc8a 8e3d 726b 8bbd 8e02 25c0
00000130: 1467 d8be d112 ac3e 8c21 7fbd 401d 4a3d
00000140: 59c6 3ebd 7218 f4bf 7775 a73f c03b 3dbe
00000150: d914 98bf 5a7c 13bf 77c2 d3be 3a9c 8dbf
00000160: dd69 07bf d31c c0be f921 85c0 da11 843f
00000170: 7102 8abf d1da c23c 2609 83bd 56c1 30ba
00000180: 1de2 30bf efa3 eebd 5b68 9b3e 4e9f f9be
00000190: 6577 113f aa64 94be c324 1d40 e53f 7b40
000001a0: 53bc 453f 3826 c8bf b853 54bf 5275 1ebf
000001b0: 475d 21c0 3d23 893d 6a4b 5cbe 7111 48bf
000001c0: 5046 9e3f 6e37 533e ce81 03bf 6dce 2c40
000001d0: bfdc 0a3f 2b85 80be f520 1340 ac10 323d
000001e0: 6421 5cbf f196 20c0 c0c2 37bf 8cff ee3c
000001f0: 20a3 d4bd cf5a 443a 97e4 f7be 1061 75be
00000200: 9b85 b5be 3e17 82bf 8dd1 14c0 7772 13bf
00000210: 2397 9d3f 6569 f83f b2e6 083f 5156 9dbd
00000220: 1249 c0bb b286 c8bc 90d0 87bf 1d2d 3fc0
00000230: 23f9 45bf f23d 503f d658 f33f 94e8 fe3e
00000240: d7b9 183e 24e8 3140 477e 093f 3c87 adbf
00000250: dd13 2bbf d02b 84be

fcs1.bias f4 [50]
-0.75769114 -0.24642888 1.3261958 1.2292081 -0.50165856 -0.49314058 -0.5044978 1.3861111
0.27223602 1.2681845 1.584301 1.2807686 1.5587662 -1.5769985 -0.16811562 3.1379158
-2.084351 0.55602247 -0.28764564 -0.45524484 1.7115555 0.45836878 1.1787254 1.0769216
-0.5351634 0.2530491 -0.5021367 2.1015928 1.5464708 1.4258399 0.9876498 -0.1411322
1.3493056 1.2255095 0.68780226 2.0993748 0.47382212 0.74553275 1.1364416 2.0540357
1.3291363 -0.4899166 1.8563825 0.63595444 -0.987227 -0.31067404 0.94035804 -0.32481027
0.04802013 1.2538229
00000000: 0cf8 41bf da57 7cbe c9c0 a93f b156 9d3f
00000010: b26c 00bf ec7c fcbe c526 01bf 176c b13f
00000020: 8562 8b3e df53 a23f 60ca ca3f 3af0 a33f
00000030: a785 c73f 16db c9bf 8026 2cbe 9dd3 4840
00000040: 0266 05c0 7d57 0e3f 4a46 93be da15 e9be
00000050: 4014 db3f 50af ea3e 79e0 963f 91d8 893f
00000060: 7800 09bf a78f 813e 088c 00bf 7f80 0640
00000070: c1f2 c53f ec81 b63f 9ed6 7c3f f684 10be
00000080: 0cb6 ac3f 7fdd 9c3f cf13 303f 285c 0640
00000090: d098 f23e 3cdb 3e3f eb76 913f 5275 0340
000000a0: 2321 aa3f 59d6 fabe f19d ed3f e9cd 223f
000000b0: e9ba 7cbf ab10 9fbe 4ebb 703f 884d a6be
000000c0: c1b0 443d 457d a03f

fc2.weight f4 [50, 51]
0.75085396 1.2534416 0.45507744 0.12862468 0.11612953 0.076044604 -0.27879193 1.0579604
0.20000786 0.50490826 -0.39377114 -1.8838779 0.37276942 -1.0436333 -1.042967 -0.90095425
0.96914697 -0.21640946 -0.13395672 -0.08604278 -2.0679173 0.6050479 0.3369375 1.2793306
0.09588533 -0.061677665 -0.04681588 -0.44609043 0.462361 0.7138251 1.0211844 0.050663352
0.62163067 1.1260686 0.20914304 -1.5170388 -1.6077209 0.40302253 -0.6232402 -0.19677907
0.082571216 0.116220534 0.975133 1.0959157 0.9814314 -0.023373902 0.040616617 -0.4181774
0.4444545 0.36386532 -0.49761587 -3.013839 -1.0813602 2.0232136 0.54562026 -3.7462583
0.019595942 3.3214948 1.9625971 0.7205776 -0.84260803 -2.4366 1.2237439 1.1293494
-1.8856175 0.8911991 -2.1885955 -1.5935929 0.6360464 -0.114372626 -0.06478635 -2.9670734
-0.3081878 1.4112126 1.5452482 -0.050619513 1.1318814 0.060854387 0.61883414 1.2974632
0.57603693 0.8215451 -0.057545513 0.8126817 0.037504997 -0.1627558 -3.5853062 -0.5453941
0.04807102 -1.7781804 0.9594418 -2.6024082 -0.090072796 2.3421373 1.9395984 -2.413518
-0.06723888 -1.597655 -1.3427912 -3.33244 0.42156318 -1.562086 0.48042786 -5.643743
0.34757864 0.67765707 0.0133318305 0.07161658 -0.8546571 0.64090693 -0.07107697 0.8864897
-0.40992415 0.108200334 0.1263101 -18.202112 1.1649961 -1.0713853 1.4462653 -0.25035638
-0.0309763 0.067084655 0.8260801 0.30826744 -0.19526184 0.22799109 -0.108181804 0.32214803
0.07817533 0.053060774 0.43145713 0.92606014 -0.045090724 0.07502263 -0.32766625 0.8818536
0.45174864 -1.7173804 1.2501463 0.16880108 -0.440908 -0.33952484 0.20508559 0.12805386
0.004925335 0.9583986 1.3927912 0.16980721 -2.009386 -0.14478654 0.28875986 0.20102547
0.9538495 0.5604381 -0.34633335 -0.004635659 0.07914031 0.4708358 -0.107678086 -0.1471304
0.35615763 -0.23054911 0.24906495 -0.01012198 -0.5140064 0.44086727 -3.170105 0.959686
-1.2109824 0.81846833 -0.28861317 -0.12416606 -0.048417747 -0.6678553 0.3464917 0.3673992
-1.2347401 -0.11419846 -0.15122813 -0.030351937 0.9915657 0.76397943 0.8638015 1.8068362
0.030881153 0.22020446 0.471958 0.58555937 -2.0308714 0.74090046 0.48772153 -0.2009896
-0.4740797 -0.6521633 -0.013699479 0.11771433 1.2095677 0.96629333 0.048517723 -1.170932
-0.6614972 0.28995937 0.5667729 0.37321487 0.4775587 -2.5906758 1.0696969 -2.2845945
0.31762502 -0.045241054 -0.039845854 1.2155597 -0.048826434 1.4892743 -0.5250071 -1.3857391
-1.1815861 -9.406648 1.8059261 -0.11170137 1.0513444 -0.2805743 0.059182506 0.06682501
-1.55177 0.2145082 -0.15547039 0.48973665 -0.15989299 -0.94955254 -0.03650902 -0.5070695
0.1546583 0.31116414 -0.35391766 0.06171503 0.3416374 0.84533226 0.72644085 -0.8517661
1.3821614 0.16713373 -0.5833099 0.06644188 1.00054 -0.072813995 0.6605768 -10.361049
1.0242857 -0.09268997 -7.4527926 -0.5304029 0.17827645 -0.49080345 0.45811498 0.85795766
00000000: f737 403f c670 a03f e9ff e83e 30b6 033e
00000010: 52d5 ed3d 46bd 9b3d d1bd 8ebe 3f6b 873f
00000020: dcce 4c3e ab41 013f 5f9c c9be e922 f1bf
00000030: a2db be3e c795 85bf f17f 85bf f0a4 66bf
00000040: 041a 783f 719a 5dbe f32b 09be 3237 b0bd
00000050: c258 04c0 6be4 1a3f 1283 ac3e 1bc1 a33f
00000060: 875f c43d b8a1 7cbd 02c2 3fbd f765 e4be
00000070: 95ba ec3e 3ebd 363f 2cb6 823f 6084 4f3d
00000080: 3023 1f3f 0423 903f 9829 563e 542e c2bf
00000090: ccc9 cdbf f858 ce3e ab8c 1fbf 7480 49be
000000a0: 191b a93d 0805 ee3d 51a2 793f f746 8c3f
000000b0: 173f 7b3f a07a bfbc 9c5d 263d 591b d6be
000000c0: 8a8f e33e 8e4c ba3e 82c7 febe bde2 40c0
000000d0: 036a 8abf 557c 0140 c5ad 0b3f b2c2 6fc0
000000e0: ab87 a03c 5f93 5440 6236 fb3f c677 383f
000000f0: 29b5 57bf 41f1 1bc0 a4a3 9c3f 858e 903f
00000100: ea5b f1bf a025 643f f311 0cc0 dafa cbbf
00000110: f0d3 223f 323c eabd b5ae 84bd 88e4 3dc0
00000120: cbca 9dbe 9da2 b43f b1ca c53f 6856 4fbd
00000130: 7de1 903f 7342 793d ea6b 1e3f 4613 a63f
00000140: 2877 133f c850 523f d8b4 6bbd e80b 503f
00000150: d79e 193d 75a9 26be a875 65c0 f39e 0bbf
00000160: 1ee6 443d 6a9b e3bf fa9d 753f db8d 26c0
00000170: 1678 b8bd 94e5 1540 c344 f83f 1477 1ac0
00000180: 8ab4 89bd f67f ccbf 95e0 abbf b246 55c0
00000190: 21d7 d73e 6ff2 c7bf a4fa f53e 8b99 b4c0
000001a0: d4f5 b13e ef7a 2d3f c06d 5a3c b7ab 923d
000001b0: cfca 5abf 7a12 243f cd90 91bd fdf0 623f
000001c0: 94e1 d1be 2398 dd3d 6f57 013e ed9d 91c1
000001d0: 981e 953f 2723 89bf 391f b93f b62e 80be
000001e0: 02c2 fdbc ae63 893d fc79 533f 3bd5 9d3e
000001f0: b8f2 47be 7f76 693e 6c8e ddbd 96f0 a43e
00000200: 631a a03d 4156 593d f3e7 dc3e 4712 6d3f
00000210: 0db1 38bd 77a5 993d dfc3 a7be 28c1 613f
00000220: 994b e73e 1fd3 dbbf cb04 a03f 31da 2c3e
00000230: b2be e1be 33d6 adbe f501 523e 8d20 033e
00000240: b464 a13b 9c59 753f fb46 b23f f1e1 2d3e
00000250: c899 00c0 ec42 14be 55d8 933e 9fd9 4d3e
00000260: 7b2f 743f df78 0f3f 9b52 b1be bae6 97bb
00000270: 5114 a23d 6411 f13e 5486 dcbd 5aa9 16be
00000280: 4b5a b63e 1115 6cbe e20a 7f3e a9d6 25bc
00000290: ec95 03bf 5bb9 e13e 00e3 4ac0 fbad 753f
000002a0: 7901 9bbf 2487 513f 1bc5 93be c64a febd
000002b0: b051 46bd 91f8 2abf 5c67 b13e bf1b bc3e
000002c0: f70b 9ebf e2e0 e9bd 8cdb 1abe a0a4 f8bc
000002d0: 40d7 7d3f 2894 433f 1822 5d3f 6946 e73f
000002e0: 79fa fc3c 477d 613e 7ba4 f13e 38e7 153f
000002f0: ccf9 01c0 a7ab 3d3f a3b6 f93e 38d0 4dbe
00000300: 93ba f2be 2df4 26bf c873 60bc 3614 f13d
00000310: 1dd3 9a3f 005f 773f 85ba 463d 1ae1 95bf
00000320: e157 29bf 8e75 943e 0718 113f 0516 bf3e
00000330: 9382 f43e a2cd 25c0 d4eb 883f cc36 12c0
00000340: bf9f a23e af4e 39bd 6835 23bd 7697 9b3f
00000350: 3afe 47bd 8aa0 be3f de66 06bf e65f b1bf
00000360: 373e 97bf a181 16c1 9628 e73f b0c3 e4bd
00000370: 7492 863f 6fa7 8fbe 5b69 723d 8ddb 883d
00000380: 66a0 c6bf 0aa8 5b3e a133 1fbe c3be fa3e
00000390: fdba 23be e015 73bf 7b8a 15bd 4fcf 01bf
000003a0: bf5e 1e3e e850 9f3e b234 b5be e6c8 7c3d
000003b0: 19eb ae3e b267 583f 07f8 393f 580d 5abf
000003c0: aaea b03f 1b25 2b3e cc53 15bf ae12 883d
000003d0: b211 803f 811f 95bd 901b 293f dbc6 25c1
000003e0: cb1b 833f 3dd4 bdbd 477d eec0 7cc8 07bf
000003f0: 1a8e 363e 974a fbbe 0c8e ea3e 1da3 5b3f

fc2.bias f4 [50]
-0.45825988 0.32070428 -1.276215 -1.19684 -0.113517135 -0.43759584 -0.6390608 -0.8702103
-0.6049318 -1.1219721 -0.3124373 2.094152 0.45836034 -1.1919675 -1.0526062 -0.6878875
0.38306302 -0.4482226 -0.16481932 -1.0703923 -0.33488455 -1.5704756 -1.6353744 -0.096493185
-0.010309227 -0.72328657 4.7716413 -0.2830076 -0.37052682 -0.006275879 0.04233645 -1.0322828
-0.21134083 -0.6427275 -0.9974458 -1.5079826 -1.5514684 -0.8934894 -1.1201521 -0.98959833
-2.0000117 -0.028752627 -0.9612687 -0.7434107 -1.5387052 -1.8981292 -1.6436245 -0.8700831
-0.21923216 -1.8034931
00000000: 0aa1 eabe 5a33 a43e 035b a3bf 0e32 99bf
00000010: ac7b e8bd 900c e0be 7d99 23bf 1ac6 5ebf
00000020: cfdc 1abf c89c 8fbf c8f7 9fbe 9606 0640
00000030: 35ae ea3e 6492 98bf cdbb 86bf 6519 30bf
00000040: d620 c43e 6f7d e5be 65c6 28be 9d02 89bf
00000050: fd75 abbe 5805 c9bf f353 d1bf 389e c5bd
00000060: 08e8 28bc 4f29 39bf 49b1 9840 5fe6 90be
00000070: b1b5 bdbe e4a5 cdbb fc68 2d3d d821 84bf
00000080: bb69 58be ca89 24bf 9c58 7fbf 9305 c1bf
00000090: 8496 c6bf b9bb 64bf 2561 8fbf 5156 7dbf
000000a0: 3100 00c0 a18a ebbc b515 76bf 2a50 3ebf
000000b0: 4bf4 c4bf e6f5 f2bf 4a62 d2bf c4bd 5ebf
000000c0: 657e 60be ddd8 e6bf

fc3.weight f4 [1, 50]
-3.5579216 -11.266778 -4.0592017 -3.7424822 -1.9327606 -2.0794017 -2.6753335 -3.5054348
-3.0698886 -3.5563936 -2.4693756 8.610712 -12.44102 -10.866736 -0.66085887 -2.3429875
-4.9328218 -2.1556585 -0.02957622 -2.7758195 -7.654573 -4.3218346 -2.2505345 0.0025493614
-0.0011469385 -3.2529423 13.075584 -1.5065796 -4.4860325 -0.030714013 5.241127 -2.369542
-3.635206 -2.739033 -1.9702975 -7.209834 -5.281876 -3.6194026 -2.1042604 -10.314783
-4.9887996 -2.0167916 -3.3960903 -6.439708 -3.0583577 -6.0073028 -4.329937 -3.3739352
-0.023590133 -2.9178405
00000000: fdb4 63c0 b944 34c1 fbe4 81c0 d484 6fc0
00000010: b364 f7bf eb14 05c0 aa38 2bc0 0b59 60c0
00000020: 0e79 44c0 f49b 63c0 400a 1ec0 7ac5 0941
00000030: 6b0e 47c1 27de 2dc1 0c2e 29bf 82f3 15c0
00000040: add9 9dc0 4ff6 09c0 d449 f2bc 07a7 31c0
00000050: 43f2 f4c0 784c 8ac0 c208 10c0 3013 273b
00000060: df54 96ba 3530 50c0 9835 5141 9ad7 c0bf
00000070: 948d 8fc0 f49b fbbc 50b7 a740 93a6 17c0
00000080: 37a7 68c0 514c 2fc0 b532 fcbf f6b6 e6c0
00000090: 2105 a9c0 4ba4 67c0 34ac 06c0 5a09 25c1
000000a0: 3fa4 9fc0 1d13 01c0 8b59 59c0 1712 cec0
000000b0: 22bc 43c0 d33b c0c0 d88e 8ac0 8eee 57c0
000000c0: 1840 c1bc e6bd 3ac0
