checkpoint_critic.pth (torch, 492135 bytes, 5 tensors)

fcs1.weight f4 [400, 3]
000000 2c 01 38 bf 65 a6 a6 be 49 79 d3 bd 0b a0 61 3d
       -0.7187679 -0.32548824 -0.10325868 0.05508427
000010 06 dd 99 be cb 64 78 bc 35 d9 95 bc 65 aa 89 3f
       -0.3005144 -0.01516075 -0.018292049 1.0755125
000020 53 b1 98 3e 16 6a 76 3f 02 a1 1c bf 9f 78 fe bd
       0.29822788 0.96255624 -0.6118318 -0.124253504
000030 9d 41 d5 bd 41 0b 78 3f 56 c6 10 3a bf 14 35 bd
       -0.10412905 0.9689217 0.00055227184 -0.04420924
000040 48 7c 3e bd b3 2b 3d 3c 8f b4 5e be df 1d 18 be
       -0.046505243 0.011546063 -0.21748565 -0.14855145
000050 40 31 b5 bd ae d8 99 be bc 6f 01 bd f4 fd 06 3e
       -0.08847284 -0.30048126 -0.0316007 0.13182813
000060 f1 2a a2 be 5a 0e 01 c0 5f c3 e6 be a2 ca 53 3e
       -0.31673387 -2.016501 -0.4507093 0.20682767
000070 ca 34 1d 3f db d6 4e be 46 10 c6 be ad 3e b9 bf
       0.61408675 -0.20199148 -0.3868429 -1.4472252
000080 d7 9b b0 be 75 2c 23 bf 96 0a d8 3d 0e d5 c4 bd
       -0.34493896 -0.6373971 0.10548894 -0.096109495
000090 c7 68 8d bf 5f 95 19 3e 68 da 58 be 53 39 14 3d
       -1.10476 0.14998387 -0.21177065 0.03618748
0000a0 33 39 7a 3c b3 b0 0e bb 69 78 6b be 18 f4 12 be
       0.015272426 -0.0021772801 -0.22995152 -0.14350927
0000b0 6f 07 13 b9 7f e3 a7 bf 39 41 d0 be 0b 87 c3 be
       -0.00014021782 -1.3116301 -0.4067476 -0.38188967
0000c0 67 ce 25 3c fa 82 31 bc 30 0d 01 bd ca 94 b3 bc
       0.010120011 -0.01083445 -0.031506717 -0.021921534
0000d0 07 26 27 3c e7 f4 d2 bb bb f2 71 3e 67 7c 1c 3e
       0.0102019375 -0.006437886 0.2362775 0.1528183
0000e0 49 ec b9 3c 67 51 ba ba 2d 74 07 bc e0 3f 0a bc
       0.022695677 -0.0014214934 -0.008267445 -0.008438081
0000f0 47 2b 0d 3d aa af f2 bc d0 12 a2 bc ef a0 0d 3d
       0.0344651 -0.029624779 -0.019784361 0.034577306
000100 8d c4 75 3c 13 35 b3 3c 76 ae 9c 3e 79 23 42 be
       0.015000475 0.021875894 0.30601853 -0.18958844
000110 0f 6c 8d 3d da 54 d7 3b 08 5d 00 3d 53 ce ed bc
       0.06905376 0.0065713944 0.03133872 -0.029029047
000120 e6 34 a1 3e f9 dc 4b bd 00 8d e1 3d da f9 55 bf
       0.3148567 -0.049771283 0.11013222 -0.8358437
000130 9d ed 04 bf 68 d5 b2 3c 45 35 81 3f af 27 c2 3e
       -0.5192507 0.021830276 1.0094382 0.379209
000140 58 9b 7a 3e 0d 3f cf bd a0 e3 f1 3e c7 d3 aa 3d
       0.24473321 -0.10119448 0.47243977 0.083411746
000150 bd a4 96 3c 9a 6a bc 3c 48 47 49 bd 3a 69 fe bc
       0.0183891 0.02300005 -0.049140245 -0.031056035
000160 28 08 21 bd 4f 90 0c bd 00 26 9e bc 20 b4 da 3c
       -0.03931442 -0.03431731 -0.01930523 0.026697218
000170 da 92 10 3d ce bb b4 3e f9 f7 a3 bf ad 47 f1 bc
       0.0352963 0.35299534 -1.281005 -0.029453123
000180 4d 48 08 3d 83 96 d6 bc 05 13 30 bd 70 71 6a bd
       0.033272076 -0.026194816 -0.04298689 -0.05723709
000190 16 3a 38 bd 50 dd 49 bd 1d 47 25 3d 45 59 0c bd
       -0.04497727 -0.049283326 0.040351022 -0.03426482
0001a0 e7 c4 83 3b c0 f8 94 bf 57 16 32 bf 6a d7 b9 be
       0.0040212753 -1.1638412 -0.6956534 -0.3629716
0001b0 53 da 27 bf e4 0a 62 bf 03 ab 87 be 90 71 0b 3c
       -0.6556751 -0.8829787 -0.2649766 0.008510962
0001c0 86 a5 64 3c c8 bf 87 39 67 bb 3b 3b 62 25 49 bd
       0.0139554795 0.00025892095 0.0028645636 -0.049107917
0001d0 8f 06 41 bd 34 cc b6 3c 1b 51 9b be f7 f0 09 3b
       -0.047125395 0.022314169 -0.30335316 0.0021048167
0001e0 93 86 97 be 82 61 35 3e b6 17 a3 bd 3b 6a 26 bd
       -0.2959486 0.17712978 -0.07963507 -0.040628653
0001f0 8a 57 1f 3d c3 6a bb 3c a6 46 0b be 63 d6 99 3e
       0.038901843 0.022878056 -0.13601169 0.30046377
000200 3b a0 81 3d 91 31 d0 bb 7a 58 57 bc 94 3d 0b ba
       0.0632939 -0.006353565 -0.013143653 -0.0005311605
000210 8f 3f 64 bd fc 69 cc 3f c8 96 b4 3d 25 92 2e bd
       -0.055724677 1.5969844 0.08817822 -0.042619843
000220 a0 e5 31 bd 1a 36 aa 3c 42 6b 25 3b a4 22 31 3c
       -0.043431878 0.02077775 0.0025240933 0.010811482
000230 fd dc e4 39 bf 88 0a 3f 22 32 22 bf 88 50 d1 be
       0.00043652198 0.5411491 -0.63357747 -0.40881753
000240 b6 5b a8 be 3a d6 f9 be f2 00 af 3e 70 1a c7 3e
       -0.3288247 -0.48796254 0.3418041 0.38887358
000250 04 58 93 3f b3 7a 86 3e bc 9d fd be 33 e0 f8 3e
       1.1511235 0.26265487 -0.49534404 0.4860855
000260 47 1a 4d bd ca 13 d5 3c 9a b6 f8 bb 87 70 e0 bc
       -0.05007389 0.026010413 -0.007590127 -0.027397407
000270 93 3e 19 bd 67 7a c2 3c f7 0f 88 3c f3 f0 94 3e
       -0.03741319 0.023740007 0.016609175 0.2909008
000280 02 95 11 3f ce ae e7 3c 11 c1 22 bf 88 4a 93 bf
       0.5686799 0.028281596 -0.63575846 -1.150712
000290 3c ce 9c be 71 2a 6a 3d 74 86 51 3b de 8d 10 bd
       -0.30626094 0.05716938 0.003197101 -0.035291545
0002a0 2f 53 be be d0 45 80 3e 55 1d c6 bd bd 3b 7b be
       -0.3717284 0.25053263 -0.096735634 -0.24534507
0002b0 10 0d 2f 3d 8d 3a 50 3d f3 2f 3a bf e0 7f c7 bf
       0.042737067 0.05083709 -0.72729415 -1.5585899
0002c0 55 7e d8 be 6b 4e 03 bf c1 18 9b bf bb 31 7d be
       -0.42283884 -0.5129153 -1.2116929 -0.24726002
0002d0 87 fc 70 3c df d1 0c 3d 60 48 21 3c 40 ef 07 3c
       0.014708645 0.034379836 0.009843916 0.008296788
0002e0 80 94 f1 3c 3a 86 08 bd 38 1b 6b 3f f2 74 c3 3e
       0.029489756 -0.033331133 0.9183841 0.3817516
0002f0 f9 a3 c7 3e 00 34 e2 3b b8 c7 1e bd 3a 17 a4 bc
       0.3899229 0.0069031715 -0.038764685 -0.020030607
000300 b3 f1 80 bc e7 69 32 bd 6f 2c 27 bd 88 4e bf bb
       -0.015740251 -0.043558028 -0.04081386 -0.005838219
000310 ba 4a 06 3f 2d a2 4b bc 7c 93 22 3f 8e 53 d7 bc
       0.52457774 -0.012428802 0.63506293 -0.02628496
000320 ac 6d 53 3e 34 ca 0d bf cb 95 e9 be cd 04 d7 bd
       0.20647305 -0.5538666 -0.45622095 -0.104989626
000330 50 bb 06 3d ab 33 18 3d 73 75 0c bd 67 9c bc 3c
       0.03289348 0.03715865 -0.034291696 0.023023797
000340 33 df ac bb e3 4f 1b bd 9a e5 6b 3a 22 91 37 bd
       -0.005275631 -0.037917983 0.0008998752 -0.044816144
000350 8d 0f 86 bb 9e c8 35 3e 98 dc 82 be d2 e5 4b be
       -0.0040912093 0.1775231 -0.25558925 -0.19911888
000360 55 fa 1b be 64 52 a0 bd 53 c7 a5 bd 77 10 28 3e
       -0.15232213 -0.07828215 -0.08094659 0.16412531
000370 55 f5 4c 3f 49 13 a6 3d cf 99 38 bf 12 6a 0c bf
       0.80061847 0.08109147 -0.72109693 -0.5484935
000380 85 59 80 be ef 54 44 3d 9d 71 ba 3c b2 3d 20 bd
       -0.25068298 0.04793256 0.022759253 -0.039121337
000390 3b 9c 25 bd 8d ba 1d bd 07 70 04 bc 20 38 1c 3d
       -0.040432196 -0.038507987 -0.00808335 0.038139462
0003a0 93 9a 0a 3c 87 b6 ae 3c b2 79 9f be c8 24 2c 3f
       0.008459705 0.02132727 -0.31147534 0.67243624
0003b0 a9 0a b0 bb 5a fc 50 3c e0 41 14 3d e7 07 d2 bb
       -0.0053723645 0.012755478 0.036195636 -0.0064096334
0003c0 12 aa 73 bb c5 3c 52 3d 7e 64 02 bd 70 e1 51 3f
       -0.0037180227 0.051327486 -0.031834118 0.81984615
0003d0 dd 67 12 bf e1 48 a2 bd b8 0f 45 3d 4a f9 04 bd
       -0.5718973 -0.07924057 0.048110694 -0.032464303
0003e0 97 4c db bc 9a 9a ee bb 5a 60 49 bd cd 3a 00 bd
       -0.02676992 -0.0072816135 -0.049164154 -0.031306077
0003f0 dc fb a9 3e ea bc 5a 3f 0d dc 56 3e ba f3 2e 3d
       0.33199966 0.8544451 0.2098238 0.042712905

fcs1.bias f4 [400]
000000 96 c7 2f be 04 9c 6e bd 41 3f af bc 53 2f 11 3f
       -0.1716598 -0.058254257 -0.021392467 0.56712836
000010 ef 7f 00 bc e9 ad e8 be 79 47 ca 3e 69 c0 07 3f
       -0.007843002 -0.45445183 0.39507654 0.5302797
000020 c0 6d b7 3e 6d 47 5e be 0f 0c f6 3d 8c d4 34 3e
       0.3582592 -0.21706934 0.12014019 0.17659205
000030 75 74 82 3e b6 6f 5d be 13 75 92 be 03 83 8e 3f
       0.25479475 -0.21624646 -0.28604946 1.1133732
000040 2a 8c 9d be 8f b6 a4 bd d4 b6 f8 3e c2 59 a3 be
       -0.30771 -0.08042633 0.48576987 -0.31904417
000050 38 fa ff be 70 d1 00 bf f1 88 05 3f 24 d7 84 be
       -0.4999559 -0.50319576 0.5216208 -0.2594539
000060 81 3d 07 3f df 27 e3 be 86 2a 23 be a0 a2 0d 3e
       0.5282822 -0.44366357 -0.1593419 0.13831568
000070 d1 2d 02 bf aa f3 f8 be 6d 35 db be 33 d5 90 3e
       -0.5085116 -0.486234 -0.42814198 0.28287658
000080 3d 6a ee be 2e 2b 26 3e a5 5b c9 be ba 8d 75 3f
       -0.46565428 0.16227409 -0.39327732 0.9591938
000090 1b 44 01 3f e6 08 ac bc f4 7e ba be 11 b0 c5 bc
       0.50494546 -0.021000337 -0.36424983 -0.024131807
0000a0 4a 59 ab 3e f2 92 98 be 42 3a 11 3e 63 a2 9c bc
       0.3346656 -0.2979961 0.1418238 -0.0191204
0000b0 ec e1 42 3e 2d b5 d3 be f5 c6 65 bc 0c 76 ae 3e
       0.19031495 -0.41349164 -0.014024486 0.34074438
0000c0 dc 5d 03 bf f1 00 54 bd 48 24 57 be bc 24 62 be
       -0.51315093 -0.05175871 -0.21009934 -0.22084326
0000d0 31 cd e1 be f0 c7 ca 3c 56 c0 2d 3f 2a fc 8a be
       -0.4410186 0.02475354 0.67871606 -0.2714551
0000e0 3a 95 b4 3e 00 89 d5 3d 81 13 f4 3e 0a 2c 81 3e
       0.352701 0.10426521 0.4767113 0.25228912
0000f0 8c 60 e7 be 37 78 0d bf 5d 37 c0 bf 9d 45 d3 be
       -0.45190847 -0.5526156 -1.5016896 -0.41264048
000100 86 75 06 bf 1f 44 92 3d 8e 7e 83 bf 08 c0 02 3f
       -0.52523077 0.07141899 -1.0272996 0.51074266
000110 c6 39 f2 be 0c 7c 8a be 0c 03 d4 be 7d df b3 3e
       -0.47309703 -0.27047765 -0.41408575 0.35131446
000120 45 88 d2 3e db ef 1e 3e 67 ff 3b 3f e2 42 0d bf
       0.4111959 0.15521185 0.7343659 -0.5518018
000130 d3 98 a2 be 29 2a 46 be 75 36 10 3d 77 83 24 be
       -0.3175722 -0.1935202 0.035208184 -0.16065775
000140 a7 93 2b 3e d8 ef 18 3f 45 42 4d be 96 01 86 be
       0.16755544 0.5974097 -0.20044811 -0.26173085
000150 00 7b e8 bd a5 1b b4 be d0 b9 a6 3c 14 16 f5 be
       -0.113515854 -0.3517734 0.020352274 -0.47868407
000160 93 b5 e2 be ff 7a 07 3f 6d 81 ca be 15 63 05 3f
       -0.44279155 0.5292205 -0.3955187 0.5210431
000170 de b7 e6 3e b9 bb d2 be b1 db 05 3f 48 27 b6 be
       0.45062155 -0.41158846 0.5228835 -0.35576844
000180 58 f5 f6 bd 57 81 18 bd 0c 38 56 3d 47 e6 20 3f
       -0.12058514 -0.037232723 0.052299544 0.62851375
000190 1e 6b cb be 78 92 63 bd b7 9e 10 3f ac be b5 be
       -0.3973016 -0.055559605 0.5649218 -0.35497034
0001a0 98 5b f6 be 50 b5 b0 3e fd 98 14 3f 64 f4 f0 be
       -0.48116755 0.3451333 0.5804594 -0.47061455
0001b0 48 bc 0d 3f 22 ae 3a bf e0 b8 1a 3d 85 bf a4 be
       0.5536542 -0.72921956 0.037773967 -0.32177368
0001c0 f6 d0 01 bf 2e fa 87 be 83 5e 29 3f c6 7a 84 be
       -0.50709474 -0.2655806 0.6615984 -0.2587492
0001d0 14 c9 cf 3e 2d c4 9d 3e b9 b0 c8 3d 53 5f 95 3e
       0.40583098 0.30813733 0.09799332 0.2917429
0001e0 3b 2f 0e bf e6 77 e3 3e 56 a5 93 be 2a 5c 04 3f
       -0.5554082 0.44427413 -0.2883708 0.5170313
0001f0 ce 3c d9 be 8e 40 04 bf 6a 9e 29 3e d6 6b 00 3f
       -0.42429203 -0.51661 0.16564336 0.50164545
000200 f3 ac 0d bf e0 5e 0e 3f 1c ec 98 3c ca b4 12 3f
       -0.55342025 0.5561352 0.018667273 0.5730711
000210 94 01 0b 3f d9 55 58 3e 41 33 55 bf 49 bb c0 be
       0.54299283 0.21126498 -0.8328133 -0.37642887
000220 cf 4d 7a 3e 34 4f fc be ae f3 90 3e 01 6d 4a 3f
       0.24443744 -0.49279177 0.28310913 0.79072577
000230 6d 74 4e bd 69 1e 71 be c1 95 a0 be e9 77 81 be
       -0.050404 -0.23546757 -0.31364253 -0.25286797
000240 1a d0 08 3f 82 e8 04 bf 75 4a d2 3d 38 06 0d bf
       0.5344254 -0.5191728 0.10268108 -0.55087614
000250 7c 5e 85 be ff 17 49 be da 47 0d 3f df 2e ec be
       -0.26048648 -0.1963806 0.5518776 -0.4612951
000260 72 e4 ab 3d f3 aa 4b be ba 52 91 be a4 f3 02 be
       0.08393182 -0.1988943 -0.28383428 -0.12788254
000270 90 7b 03 3f 45 c0 ea be 60 4a 85 be ce bf 2e be
       0.51360416 -0.45849815 -0.26033306 -0.17065355
000280 72 f0 cc be 3b f4 6d 3e 6e c5 42 bd f3 7f 76 3e
       -0.40027195 0.23237698 -0.047551565 0.24072246
000290 69 2a 67 3e 07 f5 5b be 07 5b c4 3e 8a 82 76 bf
       0.22574772 -0.2148019 0.38350698 -0.96292937
0002a0 41 f4 19 be a4 51 fb 3e 31 9e 88 be d5 9e d8 3e
       -0.15034582 0.49085724 -0.2668319 0.4230868
0002b0 d0 0d 91 be 81 91 83 be 35 5c da be 4b b6 5e be
       -0.2833085 -0.25696948 -0.42648473 -0.21749227
0002c0 2e 39 1a bf a0 97 00 bf 93 e3 71 be 65 d6 bf be
       -0.602435 -0.5023136 -0.23621969 -0.37468258
0002d0 22 24 86 bc 91 92 c2 3e 1c 4c 06 3f 34 a7 19 3f
       -0.016374651 0.38002446 0.52459884 0.60020757
0002e0 ce 92 86 be 54 cc 36 3e 95 1e 61 bd ab d1 04 bf
       -0.26283878 0.17851382 -0.054960806 -0.5188243
0002f0 f1 85 e0 be 74 93 ea be 35 7b 48 3f 9a ac 8c 3e
       -0.4385219 -0.45815623 0.78313 0.27475435
000300 58 6c da 3e ab 8a b9 bf ce a3 32 3f 28 77 b1 3e
       0.42660785 -1.4495443 0.69781196 0.34661222
000310 2f 15 f5 bd ad 85 c0 be 54 c9 95 be 66 b3 e0 be
       -0.11966931 -0.37601987 -0.29255164 -0.4388687
000320 ae 49 f5 be f7 f7 9e 3e fb 9b 0f bf a2 4f 42 3f
       -0.47907776 0.31048557 -0.5609738 0.7590276
000330 02 b5 1c 3f 0b 88 a8 3d c3 24 9a 3e 40 eb ad be
       0.61213696 0.08229073 0.30106172 -0.33968544
000340 0d 3f 5c 3e 42 84 df be 98 91 f6 be 86 7a 30 be
       0.21508427 -0.43655592 -0.48157954 -0.17234239
000350 45 44 ae be 47 74 d6 3d a9 4d ca 3c cb cc 20 be
       -0.3403646 0.10471397 0.024695234 -0.15703122
000360 88 1c 97 be f4 99 07 3f 34 08 32 3d f0 8e 00 bf
       -0.29513955 0.5296929 0.043464854 -0.50218105
000370 aa 79 1f be ce 9c 11 bf bc 77 4f 3e 8f 24 41 3f
       -0.15573755 -0.5687989 0.20260519 0.7544641
000380 5e f3 03 3f be d2 b0 3e b8 ca 83 be 84 88 90 3e
       0.51543224 0.34535784 -0.257406 0.28229153
000390 81 47 a6 bd 6f 61 b6 be 0e eb eb 3e 27 94 ba be
       -0.08119107 -0.3562121 0.4607777 -0.36441156
0003a0 9c b1 9a be a7 c3 cf be f4 d9 0a bf db 34 8b be
       -0.3021363 -0.40578958 -0.5423882 -0.27188763
0003b0 76 8d 0f bf d2 67 fa be 04 95 87 3d 46 a3 af 3e
       -0.5607523 -0.48907334 0.06620219 0.34304255
0003c0 63 87 00 bf 15 f8 31 be ca 90 d9 3c da a7 61 3e
       -0.50206584 -0.17379792 0.026558299 0.22036687
0003d0 fa 38 15 be 55 ed ef 3e 74 22 1c 3f 03 10 b3 be
       -0.14572516 0.46860757 0.6099007 -0.34973153
0003e0 2f b5 82 be dd 63 f7 3e 7a 6d 89 3e a8 8c 03 bd
       -0.25528857 0.48318377 0.26841336 -0.032116562
0003f0 c5 2f 72 be f3 1d 1a 3f cd f0 03 3f 39 83 c1 be
       -0.23651035 0.6020195 0.5153931 -0.37795427

fc2.weight f4 [300, 401]
000000 27 a2 16 bf 30 d6 6d 3d 9b 96 ce 3c d4 11 93 be
       -0.58841175 0.058065593 0.025218299 -0.2872454
000010 4f 6c 38 3c 22 1f 6b 3c 27 a0 5d 3d bc e0 35 3e
       0.0112562915 0.014350684 0.05410781 0.1776151
000020 d4 57 6a bf 73 23 d2 3d 03 be 94 3e d7 02 b5 3e
       -0.91540265 0.10260668 0.29051217 0.3535373
000030 3b 9c b3 3e 56 c2 0c bc 00 3e 1e 3e 5a ed 0e bf
       0.35080132 -0.008591255 0.15453339 -0.5583092
000040 29 e5 dd 3c ff 38 0c bd ff 8f 80 3d 44 ac 3c bd
       0.027086811 -0.034234043 0.06277465 -0.046062723
000050 79 f4 e3 bc ac 4a 04 3d 04 5a 9a 3c af ab 5d bd
       -0.027826535 0.032297775 0.01884175 -0.05411881
000060 cb 82 56 3d 86 c2 c0 3f 90 f1 06 be 10 19 40 3e
       0.052370828 1.5059364 -0.13178086 0.1875956
000070 bd 4e a4 3c b6 43 24 3d 41 6a 1d bd 89 ff 5d 3e
       0.020057077 0.040103637 -0.03843141 0.2167951
000080 d0 d2 6a 3d 6e 98 d0 bc 65 59 54 3c d1 5f 40 bf
       0.057329953 -0.02546331 0.012960766 -0.75146204
000090 17 1e b1 be f2 64 be bb 34 d3 ed bb f4 3d 83 3d
       -0.3459327 -0.0058103735 -0.0072578434 0.06408301
0000a0 0b 83 0e 3e 36 cc da 39 3d 49 17 3e f7 5c f5 ba
       0.13917176 0.0004173235 0.14774032 -0.0018719722
0000b0 ce 62 22 be 27 4a 0e 3c e6 09 68 bc 55 45 9e bc
       -0.15858003 0.0086846715 -0.014162516 -0.01932017
0000c0 49 95 01 3e 31 19 34 be b9 b4 b6 3e 9c 01 61 bd
       0.12654604 -0.17587735 0.35684755 -0.054933175
0000d0 9f 68 c5 bb 3e ec a3 bb 49 58 b0 bf ae 1e 87 3d
       -0.0060244347 -0.0050025275 -1.3776942 0.065976486
0000e0 fc f0 40 3c 5c 4f 40 3e 53 40 05 3f 99 b9 18 be
       0.011776205 0.18780273 0.52051276 -0.1491455
0000f0 19 3f 2a 3d 41 40 6c bd a4 a0 87 3e e0 f5 92 bb
       0.04156408 -0.057678465 0.26489747 -0.004484877
000100 d3 1a 3b bb ef 4c bd bc 00 d4 4e 3e 5a 7e b0 bf
       -0.0028549924 -0.023107974 0.20198059 -1.378856
000110 56 1f 65 bd 83 f3 51 3d 92 d7 47 3d 85 8e 8e 3e
       -0.055938087 0.05125762 0.04878957 0.2784311
000120 3f 2f be 3d 59 45 97 be cd bf 81 3c 16 c9 0d bb
       0.09286355 -0.29545096 0.015838528 -0.002163475
000130 80 21 b9 bc 5d ff 42 3d de 77 76 3d 09 63 7c bb
       -0.022598982 0.047606815 0.060172908 -0.0038511178
000140 f3 b1 bc 3c 7d 30 75 be 91 27 2b 3d a7 6e bd bc
       0.023034072 -0.23944278 0.04178578 -0.023124052
000150 ee 39 ce bd ff 64 d0 3c ec 24 15 3d 8d 44 0f bd
       -0.10069643 0.025438784 0.036412165 -0.034977484
000160 50 9a 88 be 20 96 1b 3e 8a 7d 13 3d 70 17 84 3f
       -0.2668023 0.15193987 0.036008395 1.0319653
000170 8d 0d 38 bf d3 21 92 bd bd 41 6e bc 84 b8 f1 3b
       -0.71895677 -0.07135358 -0.01454204 0.0073767323
000180 2e ba 93 3e 01 dc 63 3e a8 4f f4 3e 85 43 43 3f
       0.2885298 0.22251894 0.47717023 0.762749
000190 d6 d0 9d 3b 3d 17 47 3f a2 fb 8b 3d 0d b7 c7 3c
       0.004816155 0.77769834 0.068351045 0.024379278
0001a0 d9 76 d0 3f 29 96 fc 3c 89 f7 65 be c8 a4 3c bc
       1.628627 0.03083332 -0.22457708 -0.011513896
0001b0 8d 7a a8 bb 5d 74 f1 3d 78 0e dd 3d 06 4a 10 3d
       -0.0051415623 0.11789773 0.10793775 0.035226844
0001c0 f2 de d6 bc 70 a2 3e 3d 4b ed 32 3f 4a 95 86 3e
       -0.026229355 0.04654163 0.6989333 0.26285774
0001d0 40 20 c2 be c7 d0 6c 3e 55 24 41 3d a1 82 c0 3e
       -0.3791523 0.23126517 0.04715379 0.37599662
0001e0 cf c1 56 3d 5c 54 7e bc 53 f5 1d 3d 0b e9 ee bd
       0.052430924 -0.0155230425 0.038564038 -0.11665543
0001f0 0a ed 53 bd 98 14 3a 3d 57 26 12 3d 26 cd 98 3e
       -0.05173973 0.045429796 0.035681095 0.29844016
000200 d1 e0 08 3d 12 94 fa 3e f7 b7 00 3d 47 d0 1b 3e
       0.033417527 0.48941094 0.031425443 0.1521617
000210 b7 18 87 3e 8b e9 45 3e e8 3e ef bd 93 51 42 3d
       0.26386043 0.19327371 -0.1168192 0.047441076
000220 55 15 6f be 12 c1 11 bd 6e 95 b9 3d ff 5b 39 bf
       -0.23347981 -0.035584517 0.090617046 -0.72406
000230 64 15 a9 be 20 37 8a 3d 37 28 60 3f ef 72 37 bd
       -0.33024132 0.067487955 0.87561363 -0.044787344
000240 f4 da 17 3f 3a 20 a1 3c 7a 9b b1 3c 81 9c 09 3d
       0.5931847 0.019668687 0.021680582 0.03359652
000250 ea 38 62 3f 05 a7 0a bd 85 fe 02 3f 29 aa 1b 3d
       0.88368094 -0.03385069 0.51169616 0.038004074
000260 45 7a cc be f7 bb 40 bd 1c 8b 0f 3d db 5b b3 3b
       -0.39937034 -0.047054257 0.035044774 0.0054735965
000270 b8 b0 18 3e 7a ba 5c bd fd 02 f9 3c 78 f4 00 3d
       0.14911163 -0.053888775 0.030396933 0.031483144
000280 46 20 03 3e d1 3f 29 3e aa bd 1b 3f c6 a4 66 3c
       0.1280528 0.1652825 0.6083628 0.014077371
000290 62 12 8a 3d 7b 0e af 3f f6 52 ba be 35 d2 0f 3d
       0.067417875 1.3676294 -0.3639142 0.03511258
0002a0 06 01 79 bd ed 09 a9 bc 1f 22 33 bd 23 95 d3 3c
       -0.06079199 -0.020634616 -0.043733712 0.02582795
0002b0 9d 30 e5 3d 2b fe 91 3d 36 86 57 3d 83 5c 41 3b
       0.11190913 0.07128557 0.052618228 0.0029504604
0002c0 b2 02 e5 bd a2 9c 1e 3d 69 be 25 bd bc be de bc
       -0.11182155 0.038723595 -0.040464792 -0.027190559
0002d0 6e 98 34 bc 7e f9 db 3b b0 ed a6 3d 34 97 2e 3f
       -0.01102267 0.0067130914 0.08150804 0.6819947
0002e0 74 31 42 bd cb de 68 be 26 fb 42 bd 16 0d 2c 3d
       -0.047410443 -0.22741239 -0.047602795 0.042004667
0002f0 38 d4 39 3c eb ee 1e 3d 55 0f 6e be 61 e1 c0 3e
       0.011342101 0.03880207 -0.23248036 0.3767195
000300 f0 4d 48 3e d8 47 d9 be 6b 81 b0 3e ee 4f f1 bc
       0.19560981 -0.42437625 0.34473738 -0.029457059
000310 eb 92 f4 3c 3e 97 a8 bc b8 ed f2 3f d8 b4 69 bd
       0.029855212 -0.02057993 1.8978796 -0.05705723
000320 30 d1 61 3d 4c 5b 57 ba 64 12 1d bd d4 69 d4 bd
       0.055131137 -0.00082152034 -0.038347617 -0.103717476
000330 7f 44 31 be d2 02 11 bf a9 db 6b 3d 0a 81 ea 3c
       -0.17311285 -0.5664493 0.05758253 0.028625984
000340 38 78 7a 3e ca 36 99 3f d6 5a 43 3d c8 dd 86 3e
       0.24459922 1.1969845 0.04769405 0.2634108
000350 e5 cd 57 bd 92 2d e5 3e 7b e1 1b bf dc 28 31 3d
       -0.05268659 0.4476133 -0.6089093 0.043251857
000360 cf 7e 8a 3d b6 fa 1f 3c c6 a6 7f bd 38 c9 c4 3f
       0.06762468 0.009764364 -0.062414907 1.5373907
000370 f2 b4 9e bc 04 f4 ae bd 0f 2c 6e 3e 5d 89 ea 3c
       -0.01937339 -0.08542636 0.23258995 0.028629953
000380 ca 70 87 be 54 cc 89 bf 94 ec b2 bd ad 16 18 3e
       -0.2645324 -1.0765481 -0.0873653 0.148524
000390 7d 0d 19 3e b8 2e b2 3f 04 16 76 3d 49 76 45 bd
       0.14946552 1.3920507 0.06007959 -0.04820851
0003a0 83 f3 f4 bc 90 ca cd 3c a2 06 b6 bb 70 5b cd bc
       -0.029901272 0.025121003 -0.00555499 -0.025068015
0003b0 01 2a 79 bc 3b 24 c0 3d f1 24 0c 3d 78 82 75 3e
       -0.015207768 0.093819104 0.034214918 0.23975551
0003c0 c2 3f 0a bd 30 8e 19 be 4a 85 3d 3f b0 67 22 3e
       -0.03375221 -0.14995646 0.7403151 0.15859866
0003d0 16 6e fa 3c 7c 26 b0 bf 4e 47 00 3e 09 3b a8 3e
       0.030570071 -1.3761744 0.125272 0.3285754
0003e0 34 42 af 3f 3b 4a 80 3d bf 55 d8 3c 8c 20 53 3d
       1.3692079 0.06264158 0.026408074 0.05154471
0003f0 89 22 24 be 5e e9 22 3f 1f 71 a3 bf fe 41 42 3d
       -0.16028799 0.6363734 -1.2768897 0.047426216

fc2.bias f4 [300]
000000 8a 45 4a bd f2 61 56 bd 96 eb cf bd 69 0e a8 bb
       -0.049382724 -0.0523395 -0.10152356 -0.005128671
000010 bd 3b e2 bc 8d 89 2c bd f9 c8 3a 3d 59 54 a5 bd
       -0.027616376 -0.042123366 0.04560182 -0.08072729
000020 92 2d e0 3d de 39 4b bd b3 cc 95 bd 6e e4 2b 3d
       0.10946192 -0.049615733 -0.07314434 0.041965894
000030 a5 29 c2 3c 59 83 85 bc cd 92 e8 bc fd 78 6a bd
       0.023701498 -0.016297983 -0.028390313 -0.05724429
000040 49 71 22 3d 29 b7 78 bd 44 9d 26 3e c5 1b a5 3c
       0.03965882 -0.06072155 0.1627093 0.020154843
000050 f5 b4 03 3d cd 2f 33 3d ac 20 70 bd 8b 43 5a 3d
       0.032154996 0.04374676 -0.05862491 0.05328707
000060 2e 68 d8 bc dd 74 82 3e 69 98 9f bd df b4 75 bd
       -0.026416864 0.25479785 -0.07792742 -0.059986945
000070 67 a9 7d 3d d9 64 9d bd 43 21 44 3d 63 43 1a 3e
       0.061929133 -0.07685251 0.047883283 0.15064768
000080 30 0c 6b bd c2 10 0a be d1 8f b5 bd 4c a0 11 3d
       -0.05738467 -0.13482955 -0.088653214 0.03555326
000090 47 c0 80 bd e2 e5 86 bd c8 7d 20 bd 45 d0 12 3e
       -0.06286674 -0.065868154 -0.039182454 0.14337261
0000a0 49 75 00 3e 38 8a a0 bd 17 16 c3 3c 6f 69 01 bd
       0.1254474 -0.07838863 0.023814244 -0.03159469
0000b0 38 6b 44 3d 5b 96 02 bd a0 94 2c bd a6 ef 62 3e
       0.047953814 -0.03188167 -0.042133927 0.22161731
0000c0 4e 34 62 bc 16 20 1b bd 98 be 8c bc 52 28 3a 3d
       -0.013806416 -0.037872396 -0.017180726 0.04544861
0000d0 a6 c7 77 3d 84 7e 73 3b 4e 7e 51 bd 61 56 41 bd
       0.060493134 0.0037154267 -0.051145844 -0.047201518
0000e0 df f0 66 bd d3 9d e2 3c 50 5e a8 3d a9 46 a8 39
       -0.056382056 0.027663147 0.08221114 0.00032096103
0000f0 fc ad d5 3d 38 65 91 3c 4c 6a 8d 3c e1 e3 49 bd
       0.104335755 0.01774846 0.0172626 -0.049289588
000100 f6 4d bd bd 0f cf 02 bd 0c 79 80 3e f4 57 2f 3d
       -0.092433855 -0.031935748 0.2509235 0.042808488
000110 e0 8e 3c 3d 4b 09 3b be 2d d9 8c 3c be ed 83 3d
       0.046034694 -0.18265264 0.017193401 0.0644183
000120 44 0b 09 3e ce 6a 1a 3e 0d a4 06 3c e7 8c 37 bd
       0.13383204 0.15079805 0.008217824 -0.04481211
000130 70 ec 8a bd 4c 1c e9 3d 77 c0 60 bd 87 8c 1b bd
       -0.06783378 0.1138235 -0.05487105 -0.037975814
000140 55 d0 ce bb 2c 36 ed bb af 18 3b bd 8e e2 08 bd
       -0.006311456 -0.007239124 -0.045677837 -0.033419184
000150 20 49 89 bc e1 5f 1c bb 53 49 05 3e f6 ac a5 bc
       -0.016758502 -0.002386086 0.13016252 -0.020224076
000160 6e b9 0b bd 2f cb 9d 3e cb 2c 46 3f b7 83 ab bc
       -0.034112386 0.3081908 0.774121 -0.02093683
000170 04 45 a9 3b 23 33 17 be 4f 89 a2 3d ad f6 fd bc
       0.005165698 -0.14765601 0.07936346 -0.031001413
000180 2c bc b9 bd df 4e 18 bd 28 1c 44 3e 9d 84 3f 3d
       -0.09069094 -0.037184592 0.19151366 0.04675733
000190 97 fc 03 be 17 75 cb bd b6 60 c4 3c 3d b6 66 bd
       -0.12889324 -0.099344425 0.023971897 -0.05632614
0001a0 0a e3 f7 bb 95 11 9d bd 29 b4 c9 3d 1f 60 90 bc
       -0.007564907 -0.07669369 0.09848816 -0.01762396
0001b0 ae 75 a9 3c 84 9e 8b 3d bc 58 8b 3d 91 cb 16 bd
       0.020685997 0.06817344 0.06804034 -0.03681523
0001c0 e1 37 a9 bd 0a 1d 06 bd e8 24 1d bd 49 aa 10 3d
       -0.08262611 -0.032742538 -0.038365275 0.035318647
0001d0 a5 31 22 3d d1 aa 6b bd 34 9d 5a 39 3f 38 a4 ba
       0.039598126 -0.05753595 0.00020848663 -0.001252897
0001e0 85 18 fd 3d 04 4d bd 3c f3 9f 83 3d 32 f3 8e 3c
       0.12358192 0.023108013 0.06426992 0.017449949
0001f0 49 92 46 bd c4 f6 93 3c a2 bb 13 3e 99 cf 89 bd
       -0.048479352 0.018062003 0.14427045 -0.06729049
000200 73 2d b6 3c b8 42 db bc e4 c6 02 3c a0 a9 1b bc
       0.022238469 -0.026765212 0.0079819895 -0.009500891
000210 6a 4b 3e bd 1b f6 51 3c c9 96 43 bd 2f 07 1e be
       -0.04645864 0.012815024 -0.04775122 -0.15432428
000220 65 05 b4 3d ed 4c 46 3d ca ba 0e bc fc 9f 23 bd
       0.087900914 0.048413206 -0.008711526 -0.039947495
000230 f0 f8 d8 3d 32 ef 6b bd ba e7 d8 bc 9f 5a 89 bd
       0.10594356 -0.05760116 -0.026477683 -0.06706738
000240 24 67 0a bc c8 66 63 bd 7d a9 73 bd 4c 4f 15 3d
       -0.008447442 -0.05551794 -0.05948781 0.036452577
000250 19 aa 9e bc ab 82 c9 bd bf 00 74 bd 88 40 59 3d
       -0.019368218 -0.09839376 -0.059571024 0.053040057
000260 64 b1 82 bc fc 99 6e bd ff c7 11 bc 1f 94 89 bc
       -0.015953727 -0.05825232 -0.00889778 -0.016794262
000270 ec 47 ec 3c 8d 81 0c 3e d3 d1 70 3e 40 5e 2a bc
       0.028842889 0.13721295 0.23517542 -0.0103984475
000280 14 e6 e0 ba b9 e2 90 bd be 92 fa bb 54 4d d1 bb
       -0.0017158412 -0.07074494 -0.0076468876 -0.006387392
000290 5e 36 c9 bc 81 cc 1d 3e 7c 0e 1c 3d 22 ce 18 3b
       -0.024562057 0.15410043 0.03809975 0.0023316224
0002a0 3e 1f d0 3d f0 3b df 3d 00 d2 0d bc 14 2b 00 bd
       0.10162209 0.10900104 -0.008656025 -0.031291083
0002b0 1d 57 0a 3c 6b b8 7c 3c 41 29 83 bd 05 15 82 3d
       0.008443621 0.015424828 -0.06404353 0.063516654
0002c0 1b 06 15 3e 81 d3 53 bc 3a cb 91 3d 9b 2f 82 3e
       0.1455311 -0.012928844 0.071188405 0.25426945
0002d0 9d ab 78 bd d7 25 21 3e 9d f1 49 3c 9c 89 47 3e
       -0.06071054 0.15737091 0.0123256715 0.19486088
0002e0 77 16 c7 bd d9 02 03 3d 97 67 7c bd e4 06 03 be
       -0.09721082 0.031985138 -0.06162223 -0.12795597
0002f0 e8 cb 02 3d 09 8a 92 3c b6 70 aa 3d 8d c0 3b bd
       0.03193274 0.017888086 0.08322279 -0.045837928
000300 25 b4 40 3c f9 a9 0b 3e 72 51 ff bc 30 aa 47 3d
       0.0117617 0.13639058 -0.031166766 0.048746288
000310 bf 91 b5 bd b3 1c 18 bd aa 47 91 bd 7c 72 70 bc
       -0.088656895 -0.037136745 -0.07093747 -0.014675733
000320 cf 61 f2 3d 56 30 ad 3c 7a bf c3 bd 24 d3 10 bd
       0.11835062 0.021141212 -0.09558006 -0.03535761
000330 10 a5 f4 bc 00 15 c5 bd 80 e1 9e bd b0 63 b5 39
       -0.029863864 -0.09623146 -0.077578545 0.00034597283
000340 e3 f8 bf 3d d0 c9 ca bd 7b 9d 6d 3c 3e 8e 71 bd
       0.09373643 -0.09901774 0.014502878 -0.058973543
000350 8b cc 8c 3d f1 fa 6f 3c 48 76 c4 bc 80 01 1d 3e
       0.06874951 0.014647231 -0.023982182 0.15332603
000360 97 d5 04 be aa 3d 70 bd 05 2a 8a 3d 28 de 2a 3d
       -0.12972103 -0.058652557 0.06746296 0.04171577
000370 86 01 8d bd 9c 88 b1 bc 45 c5 d1 bd c7 21 b3 3d
       -0.06885056 -0.021671586 -0.10242704 0.08746677
000380 19 8a d6 3c 06 0b 05 3d 72 68 0b 3e b6 3b 1d 3c
       0.026188897 0.032481216 0.13614061 0.009596756
000390 78 0d e6 bc 10 04 2b bd 5e 45 09 bc 52 1a 86 3c
       -0.028082594 -0.04175192 -0.008378355 0.016369972
0003a0 c9 d6 ba bd 1f fd c9 3d d7 3f 8d 3d 16 cc b3 3e
       -0.09122998 0.09862732 0.06896942 0.35116643
0003b0 1b 4e d0 3d bd 21 00 3e f5 bd 6a bd cd c2 83 bc
       0.101711474 0.1251287 -0.057310063 -0.0160841
0003c0 ab 12 b9 3c 9e ea 79 bd 5d ad c4 bd 00 52 eb bc
       0.02259191 -0.061014764 -0.09603379 -0.028725624
0003d0 74 42 65 3d 34 19 57 bd 7d 57 87 3c c1 01 82 bc
       0.055971578 -0.05251427 0.01652121 -0.015869977
0003e0 23 de 20 3e c2 af 19 bc ee 3c 3a bd 22 d5 9c 3d
       0.15709738 -0.009380283 -0.045468263 0.07657839
0003f0 27 e5 fd 3d a7 58 9d 3c d6 a1 b3 3d a2 01 57 bc
       0.12397223 0.019207312 0.08771102 -0.013122948

fc3.weight f4 [1, 300]
000000 f9 41 8f c0 58 d0 ac 3c 41 12 63 bf 32 1f 27 bb
       -4.4768033 0.02109544 -0.8869973 -0.0025500772
000010 ff 08 c3 ba b0 c8 3b bf 2b f7 99 bf 5d 3b 18 c0
       -0.001488 -0.733531 -1.2028555 -2.3786232
000020 5d b9 e1 be bc 6a 58 bf 86 52 72 3b f3 ef 4d bf
       -0.44086733 -0.84537864 0.0036975457 -0.8044426
000030 bf c3 b7 bf bf 94 cd bb 46 c7 d1 bc ed f2 65 3c
       -1.4356612 -0.0062738354 -0.025607716 0.014034969
000040 36 8a 0c c0 44 29 59 bc 2c 56 a2 bf 92 3c c2 bc
       -2.1959357 -0.013254467 -1.2682548 -0.023710523
000050 72 fe 48 bf 0a 0e 3f bf bc ab b1 3c b5 25 85 bf
       -0.7851325 -0.74630797 0.021688335 -1.0402132
000060 07 f7 92 c0 fc b1 1b c0 1d 27 bc bc 01 31 7e bc
       -4.5926547 -2.4327383 -0.02296787 -0.015514613
000070 14 76 7b bf 8a a3 36 be d8 a3 ad bf 71 f6 71 bf
       -0.9822705 -0.17835823 -1.3565626 -0.94516665
000080 36 d7 e9 3c 92 a7 a8 bd 14 32 1a 40 b2 a3 1c bf
       0.028545003 -0.082350865 2.4093065 -0.6118728
000090 e0 d2 ce 3c 69 4a ef bc 89 24 d8 bc 7d 14 09 c0
       0.025247037 -0.029210286 -0.026384609 -2.1418755
0000a0 f0 88 80 bf 0a df 81 bf 41 86 ca bb 21 49 f8 bc
       -1.004179 -1.0146191 -0.006180555 -0.030308308
0000b0 04 1c bb bf 57 4a bf bb db bb f3 bb 7f 44 b7 bf
       -1.4617925 -0.0058377194 -0.0074381656 -1.4317778
0000c0 a8 e9 2c bd 3e 8f 55 be d9 82 aa be 26 c6 f2 c0
       -0.04221502 -0.20855424 -0.33302954 -7.586688
0000d0 bc e3 80 bf d9 75 b1 3c 18 1f a8 bb 41 e6 b5 ba
       -1.0069499 0.02166264 -0.00513066 -0.0013877825
0000e0 0e 17 3e 3c 0a ef 04 c0 b8 ac 70 c0 c2 43 ab bb
       0.011602176 -2.0770898 -3.760542 -0.005226583
0000f0 03 59 8b bf d1 47 c6 bc 7c a5 ef be 4d 54 bf bf
       -1.0886539 -0.024204167 -0.46805942 -1.4947602
000100 81 af 7f bf 7b 00 c4 bc ad ec 65 c1 8a 88 97 bb
       -0.9987717 -0.02392601 -14.370282 -0.004624431
000110 bc 42 1c c1 15 90 cb bd 9e 32 89 bb a7 07 4a bf
       -9.766293 -0.09939591 -0.0041869422 -0.78917927
000120 c4 09 f4 bf 62 c1 d4 bf ef d6 b3 bb 80 ff 9e bb
       -1.906548 -1.6621516 -0.0054882686 -0.0048522353
000130 94 51 dd 3c 45 d2 46 bf 47 b1 be 3c d1 c4 29 3f
       0.027016439 -0.77664596 0.023277892 0.66315943
000140 17 12 d7 3c 04 79 e1 bc 7c 29 8e bb 2f 04 23 c0
       0.026253743 -0.027523525 -0.0043384414 -2.5471303
000150 3f 91 27 c0 b5 0b 43 bf 00 c3 83 bf 34 b4 1d c0
       -2.61824 -0.7618974 -1.0293884 -2.4641237
000160 1a ee d7 3c fb 9b 23 c0 f8 9d 9d 40 bc 7a cd 3c
       0.026358653 -2.5563953 4.9255333 0.025082938
000170 22 00 9b bf 01 bb 04 c0 77 fc 56 bf 46 3d 96 bf
       -1.2109416 -2.0739138 -0.8397898 -1.1737449
000180 02 52 7b be 1c c4 50 be 29 5c 98 bf af 85 43 bf
       -0.24543002 -0.2038731 -1.1903125 -0.7637586
000190 c0 e5 de be 29 e8 8a be ba 03 7b bb 0c 90 78 bb
       -0.4353466 -0.2713025 -0.0038301782 -0.0037927656
0001a0 82 ed e7 3c 46 d2 e7 bc 9f 3f 63 bf 7f 47 60 bf
       0.028311495 -0.028298508 -0.88768953 -0.87609094
0001b0 80 8f 0f 3c 34 74 38 bf 71 10 82 bf b6 65 a1 bb
       0.00876224 -0.7205231 -1.0161268 -0.004925455
0001c0 c9 74 d6 be de d4 eb 3c f9 f1 ad 3a 49 05 34 bf
       -0.41885975 0.028788026 0.0013270966 -0.70320565
0001d0 e7 08 84 c0 2a a6 68 bf 56 d3 28 c0 a1 d7 db bf
       -4.1260867 -0.90878546 -2.637899 -1.717518
0001e0 84 46 d8 be 03 8c cd bf 28 d3 01 c0 c6 61 32 bc
       -0.422413 -1.6058353 -2.028513 -0.010887569
0001f0 41 9c 78 3c bf 9f 6e bf 48 6d 67 bf 27 42 f5 bc
       0.015173973 -0.93212503 -0.90401125 -0.02993877
000200 4e c2 01 c1 ee a7 e4 3c 22 ba 79 3c 9d a4 2c bc
       -8.109938 0.027912106 0.015242131 -0.010537294
000210 6f 0f 48 3c 15 c9 86 bb 4a 5d f1 bc 98 a3 b8 c0
       0.012210711 -0.0041133263 -0.029463429 -5.76997
000220 9a 82 2a c0 01 df 72 bf a7 89 8a 3c e4 dd ec bc
       -2.6642213 -0.94871527 0.01691134 -0.0289144
000230 cc 50 33 c0 03 82 c3 3c 97 16 a3 bb ce f7 16 c0
       -2.8018064 0.023865705 -0.004977058 -2.3588748
000240 88 73 6c bb cb 04 ef bb 00 a8 e2 3c 24 61 ff bf
       -0.0036079604 -0.0072942725 0.027668 -1.995152
000250 4c c5 25 bf d2 fc 90 be f1 f0 ff b9 38 20 50 bf
       -0.64754176 -0.28317887 -0.00048816905 -0.8129916
000260 7b 15 d8 3c b5 a8 3e 3c 9d a7 d6 bb 54 6c a8 bc
       0.02637743 0.011636903 -0.006550743 -0.020559467
000270 60 50 68 c0 fd 81 6f bf 09 7f 35 c0 d7 b5 03 bc
       -3.6299057 -0.9355772 -2.8358786 -0.0080389595
000280 19 6e 0e 3a a1 1c fb 3c 37 c0 c1 3c 88 6b c3 bb
       0.0005433276 0.0306533 0.023651225 -0.0059637465
000290 bb c7 b0 bb 74 63 67 bf 3b 7d 03 c0 60 ef b3 bb
       -0.0053949035 -0.9038613 -2.0545185 -0.005491182
0002a0 c5 91 d8 be 0c 23 59 bf 4e fd 93 bb 83 b1 14 3c
       -0.42298713 -0.848191 -0.0045162803 0.009075525
0002b0 c7 98 7b 3c d6 c1 ce bf ff 50 53 bc 75 20 63 bf
       0.015356249 -1.6152904 -0.012897729 -0.887214
0002c0 17 fd fb bf 87 bf 91 38 87 a7 ad c0 02 64 9d c0
       -1.9686612 6.9498135e-05 -5.4267 -4.918458
0002d0 fb a3 8f bf 1d bc 8e bf 2f d8 d3 bd aa 55 6d bf
       -1.1221918 -1.1151158 -0.10343968 -0.9270884
0002e0 20 e2 c6 bd cb 61 57 c0 c2 1e c9 bc bc 87 2c bf
       -0.09711099 -3.3653438 -0.0245508 -0.67394614
0002f0 ae 22 aa bf 02 3b b9 bb 3a 76 d1 bf 45 b9 dc bb
       -1.3291833 -0.005652786 -1.6364205 -0.006735953
000300 b9 98 ac bb d8 63 fe bf 75 e2 de 3c a2 9b fc bd
       -0.0052672294 -1.987422 0.027207593 -0.12334372
000310 be fd 9b bf fc e8 b7 bc 50 38 da 3c 24 a2 f6 3c
       -1.2186811 -0.022449963 0.02663818 0.030106612
000320 39 8f 80 bf a6 d3 ca 3c 48 38 49 bf 27 19 38 c0
       -1.0043708 0.024759125 -0.78601503 -2.8765352
000330 d5 8c 8c bf 7c 06 b8 b7 01 bc 7a bf e7 bb e2 bb
       -1.0980479 -2.1937529e-05 -0.9794312 -0.0069193724
000340 28 11 d5 be 00 5c 59 3b 5f cf b6 bb f1 41 be 3c
       -0.41614652 0.0033166409 -0.00557892 0.023224803
000350 87 39 af bf 34 51 e4 bf c8 bc 3c 3a dc 03 a3 bf
       -1.3689431 -1.7837281 0.00071997615 -1.2735553
000360 23 c9 95 be b9 d6 a8 3c be 1a 86 bf 0e b1 7c bb
       -0.29255018 0.0206102 -1.0476911 -0.0038557681
000370 0e 25 3b 3c ac 6d 9d 3c e1 e1 af bf 7a 29 43 bf
       0.011422409 0.019217335 -1.3740808 -0.76235163
000380 58 53 4c c0 09 4c 1f bf 28 65 06 bf 28 55 c7 bc
       -3.192587 -0.62225395 -0.524981 -0.024332598
000390 01 6f 0e bf d5 bc 18 3d 52 cd 01 bf 78 0f 1b bf
       -0.5563813 0.03728946 -0.5070392 -0.6057048
0003a0 99 db a2 bd 74 f4 8f be 01 0d 18 c0 9b d8 3e c1
       -0.07952041 -0.2811619 -2.3757937 -11.927882
0003b0 90 bb aa bf a3 45 75 bf 3d 79 06 bd 81 23 b4 bb
       -1.333849 -0.9580938 -0.032830466 -0.0054973965
0003c0 86 1b da bb bf ee 8e bf 13 77 33 bf 6e 61 d8 3c
       -0.006656113 -1.116661 -0.7010357 0.026413646
0003d0 a4 e4 d4 bf 26 c5 e0 3c 4c a2 7c c0 37 fb d0 bf
       -1.6632276 0.027437758 -3.9474058 -1.6326665
0003e0 a2 a2 a4 bf 7f 60 ad bb 7a 3e b5 c0 8e d7 0c c0
       -1.2862132 -0.0052910442 -5.6638765 -2.2006564
0003f0 a7 d9 2c bf 1c d5 92 bb 94 35 77 bf aa 63 bc bb
       -0.6751961 -0.004480971 -0.9656613 -0.0057491856
